…
    mean_value: 117
    mean_value: 123
    mean_value: 104
    mean_value: 117
    mean_value: 123
    mean_value: 104
    mean_value: 117
    mean_value: 123
    fix_crop: true
    multi_scale: true
    scale_ratios: 1
    scale_ratios: 0.875
    scale_ratios: 0.75
    scale_ratios: 0.66
    max_distort: 1
    is_flow: false
    more_fix_crop: true
  }
  video_data_param {
    source: "/li_wei/AD/code/ad_exp/train_split_list.txt"
    batch_size: 32
    shuffle: true
    new_length: 1
    num_segments: 3
    modality: RGB
    name_pattern: "%03d.tif"
  }
}
layer {
  name: "reshape_data"
  type: "Reshape"
  bottom: "data"
  top: "reshape_data"
  reshape_param {
    shape {
      dim: -1
      dim: 3
      dim: 224
      dim: 224
    }
  }
}
layer {
  name: "conv1/7x7_s2"
  type: "Convolution"
  bottom: "reshape_data"
  top: "conv1/7x7_s2"
  param {
    lr_mult: 1
    decay_mult: 1
  }
  param {
    lr_mult: 2
    decay_mult: 0
  }
  convolution_param {
    num_output: 64
    pad: 3
    kernel_size: 7
    stride: 2
    weight_filler {
      type: "xavier"
    }
    bias_filler {
      type: "constant"
      value: 0.2
    }
  }
}
layer {
  name: "conv1/7x7_s2_bn"
  type: "BN"
  bottom: "conv1/7x7_s2"
  top: "conv1/7x7_s2_bn"
  param {
    lr_mult: 1
    decay_mult: 0
  }
  param {
    lr_mult: 1
    decay_mult: 0
  }
  bn_param {
    slope_filler {
      type: "constant"
      value: 1
    }
    bias_filler {
      type: "constant"
      value: 0
    }
    frozen: false
  }
}
layer {
  name: "conv1/relu_7x7"
  type: "ReLU"
  bottom: "conv1/7x7_s2_bn"
  top: "conv1/7x7_s2_bn"
}
layer {
  name: "pool1/3x3_s2"
  type: "Pooling"
  bottom: "conv1/7x7_s2_bn"
  top: "pool1/3x3_s2"
  pooling_param {
    pool: MAX
    kernel_size: 3
    stride: 2
  }
}
layer {
  name: "conv2/3x3_reduce"
  type: "Convolution"
  bottom: "pool1/3x3_s2"
  top: "conv2/3x3_reduce"
  param {
    lr_mult: 1
    decay_mult: 1
  }
  param {
    lr_mult: 2
    decay_mult: 0
  }
  convolution_param {
    num_output: 64
    kernel_size: 1
    weight_filler {
      type: "xavier"
    }
    bias_filler {
      type: "constant"
      value: 0.2
    }
  }
}
layer {
  name: "conv2/3x3_reduce_bn"
  type: "BN"
  bottom: "conv2/3x3_reduce"
  top: "conv2/3x3_reduce_bn"
  param {
    lr_mult: 1
    decay_mult: 0
  }
  param {
    lr_mult: 1
    decay_mult: 0
  }
  bn_param {
    slope_filler {
      type: "constant"
      value: 1
    }
    bias_filler {
      type: "constant"
      value: 0
    }
    frozen: true
  }
}
layer {
  name: "conv2/relu_3x3_reduce"
  type: "ReLU"
  bottom: "conv2/3x3_reduce_bn"
  top: "conv2/3x3_reduce_bn"
}
layer {
  name: "conv2/3x3"
  type: "Convolution"
  bottom: "conv2/3x3_reduce_bn"
  top: "conv2/3x3"
  param {
    lr_mult: 1
    decay_mult: 1
  }
  param {
    lr_mult: 2
    decay_mult: 0
  }
  convolution_param {
    num_output: 192
    pad: 1
    kernel_size: 3
    weight_filler {
      type: "xavier"
    }
    bias_filler {
      type: "constant"
      value: 0.2
    }
  }
}
layer {
  name: "conv2/3x3_bn"
  type: "BN"
  bottom: "conv2/3x3"
  top: "conv2/3x3_bn"
  param {
    lr_mult: 1
    decay_mult: 0
  }
  param {
    lr_mult: 1
    decay_mult: 0
  }
  bn_param {
    slope_filler {
      type: "constant"
      value: 1
    }
    bias_filler {
      type: "constant"
      value: 0
    }
    frozen: true
  }
}
layer {
  name: "conv2/relu_3x3"
  type: "ReLU"
  bottom: "conv2/3x3_bn"
  top: "conv2/3x3_bn"
}
layer {
  name: "pool2/3x3_s2"
  type: "Pooling"
  bottom: "conv2/3x3_bn"
  top: "pool2/3x3_s2"
  pooling_param {
    pool: MAX
    kernel_size: 3
    stride: 2
  }
}
layer {
  name: "inception_3a/1x1"
  type: "Convolution"
  bottom: "pool2/3x3_s2"
  top: "inception_3a/1x1"
  param {
    lr_mult: 1
    decay_mult: 1
  }
  param {
    lr_mult: 2
    decay_mult: 0
  }
  convolution_param {
    num_output: 64
    kernel_size: 1
    weight_filler {
      type: "xavier"
    }
    bias_filler {
      type: "constant"
      value: 0.2
    }
  }
}
layer {
  name: "inception_3a/1x1_bn"
  type: "BN"
  bottom: "inception_3a/1x1"
  top: "inception_3a/1x1_bn"
  param {
    lr_mult: 1
    decay_mult: 0
  }
  param {
    lr_mult: 1
    decay_mult: 0
  }
  bn_param {
    slope_filler {
      type: "constant"
      value: 1
    }
    bias_filler {
      type: "constant"
      value: 0
    }
    frozen: true
  }
}
layer {
  name: "inception_3a/relu_1x1"
  type: "ReLU"
  bottom: "inception_3a/1x1_bn"
  top: "inception_3a/1x1_bn"
}
layer {
  name: "inception_3a/3x3_reduce"
  type: "Convolution"
  bottom: "pool2/3x3_s2"
  top: "inception_3a/3x3_reduce"
  param {
    lr_mult: 1
    decay_mult: 1
  }
  param {
    lr_mult: 2
    decay_mult: 0
  }
  convolution_param {
    num_output: 64
    kernel_size: 1
    weight_filler {
      type: "xavier"
    }
    bias_filler {
      type: "constant"
      value: 0.2
    }
  }
}
layer {
  name: "inception_3a/3x3_reduce_bn"
  type: "BN"
  bottom: "inception_3a/3x3_reduce"
  top: "inception_3a/3x3_reduce_bn"
  param {
    lr_mult: 1
    decay_mult: 0
  }
  param {
    lr_mult: 1
    decay_mult: 0
  }
  bn_param {
    slope_filler {
      type: "constant"
      value: 1
    }
    bias_filler {
      type: "constant"
      value: 0
    }
    frozen: true
  }
}
layer {
  name: "inception_3a/relu_3x3_reduce"
  type: "ReLU"
  bottom: "inception_3a/3x3_reduce_bn"
  top: "inception_3a/3x3_reduce_bn"
}
layer {
  name: "inception_3a/3x3"
  type: "Convolution"
  bottom: "inception_3a/3x3_reduce_bn"
  top: "inception_3a/3x3"
  param {
    lr_mult: 1
    decay_mult: 1
  }
  param {
    lr_mult: 2
    decay_mult: 0
  }
  convolution_param {
    num_output: 64
    pad: 1
    kernel_size: 3
    weight_filler {
      type: "xavier"
    }
    bias_filler {
      type: "constant"
      value: 0.2
    }
  }
}
layer {
  name: "inception_3a/3x3_bn"
  type: "BN"
  bottom: "inception_3a/3x3"
  top: "inception_3a/3x3_bn"
  param {
    lr_mult: 1
    decay_mult: 0
  }
  param {
    lr_mult: 1
    decay_mult: 0
  }
  bn_param {
    slope_filler {
      type: "constant"
      value: 1
    }
    bias_filler {
      type: "constant"
      value: 0
    }
    frozen: true
  }
}
layer {
  name: "inception_3a/relu_3x3"
  type: "ReLU"
  bottom: "inception_3a/3x3_bn"
  top: "inception_3a/3x3_bn"
}
layer {
  name: "inception_3a/double_3x3_reduce"
  type: "Convolution"
  bottom: "pool2/3x3_s2"
  top: "inception_3a/double_3x3_reduce"
  param {
    lr_mult: 1
    decay_mult: 1
  }
  param {
    lr_mult: 2
    decay_mult: 0
  }
  convolution_param {
    num_output: 64
    kernel_size: 1
    weight_filler {
      type: "xavier"
    }
    bias_filler {
      type: "constant"
      value: 0.2
    }
  }
}
layer {
  name: "inception_3a/double_3x3_reduce_bn"
  type: "BN"
  bottom: "inception_3a/double_3x3_reduce"
  top: "inception_3a/double_3x3_reduce_bn"
  param {
    lr_mult: 1
    decay_mult: 0
  }
  param {
    lr_mult: 1
    decay_mult: 0
  }
  bn_param {
    slope_filler {
      type: "constant"
      value: 1
    }
    bias_filler {
      type: "constant"
      value: 0
    }
    frozen: true
  }
}
layer {
  name: "inception_3a/relu_double_3x3_reduce"
  type: "ReLU"
  bottom: "inception_3a/double_3x3_reduce_bn"
  top: "inception_3a/double_3x3_reduce_bn"
}
layer {
  name: "inception_3a/double_3x3_1"
  type: "Convolution"
  bottom: "inception_3a/double_3x3_reduce_bn"
  top: "inception_3a/double_3x3_1"
  param {
    lr_mult: 1
    decay_mult: 1
  }
  param {
    lr_mult: 2
    decay_mult: 0
  }
  convolution_param {
    num_output: 96
    pad: 1
    kernel_size: 3
    weight_filler {
      type: "xavier"
    }
    bias_filler {
      type: "constant"
      value: 0.2
    }
  }
}
layer {
  name: "inception_3a/double_3x3_1_bn"
  type: "BN"
  bottom: "inception_3a/double_3x3_1"
  top: "inception_3a/double_3x3_1_bn"
  param {
    lr_mult: 1
    decay_mult: 0
  }
  param {
    lr_mult: 1
    decay_mult: 0
  }
  bn_param {
    slope_filler {
      type: "constant"
      value: 1
    }
    bias_filler {
      type: "constant"
      value: 0
    }
    frozen: true
  }
}
layer {
  name: "inception_3a/relu_double_3x3_1"
  type: "ReLU"
  bottom: "inception_3a/double_3x3_1_bn"
  top: "inception_3a/double_3x3_1_bn"
}
layer {
  name: "inception_3a/double_3x3_2"
  type: "Convolution"
  bottom: "inception_3a/double_3x3_1_bn"
  top: "inception_3a/double_3x3_2"
  param {
    lr_mult: 1
    decay_mult: 1
  }
  param {
    lr_mult: 2
    decay_mult: 0
  }
  convolution_param {
    num_output: 96
    pad: 1
    kernel_size: 3
    weight_filler {
      type: "xavier"
    }
    bias_filler {
      type: "constant"
      value: 0.2
    }
  }
}
layer {
  name: "inception_3a/double_3x3_2_bn"
  type: "BN"
  bottom: "inception_3a/double_3x3_2"
  top: "inception_3a/double_3x3_2_bn"
  param {
    lr_mult: 1
    decay_mult: 0
  }
  param {
    lr_mult: 1
    decay_mult: 0
  }
  bn_param {
    slope_filler {
      type: "constant"
      value: 1
    }
    bias_filler {
      type: "constant"
      value: 0
    }
    frozen: true
  }
}
layer {
  name: "inception_3a/relu_double_3x3_2"
  type: "ReLU"
  bottom: "inception_3a/double_3x3_2_bn"
  top: "inception_3a/double_3x3_2_bn"
}
layer {
  name: "inception_3a/pool"
  type: "Pooling"
  bottom: "pool2/3x3_s2"
  top: "inception_3a/pool"
  pooling_param {
    pool: AVE
    kernel_size: 3
    stride: 1
    pad: 1
  }
}
layer {
  name: "inception_3a/pool_proj"
  type: "Convolution"
  bottom: "inception_3a/pool"
  top: "inception_3a/pool_proj"
  param {
    lr_mult: 1
    decay_mult: 1
  }
  param {
    lr_mult: 2
    decay_mult: 0
  }
  convolution_param {
    num_output: 32
    kernel_size: 1
    weight_filler {
      type: "xavier"
    }
    bias_filler {
      type: "constant"
      value: 0.2
    }
  }
}
layer {
  name: "inception_3a/pool_proj_bn"
  type: "BN"
  bottom: "inception_3a/pool_proj"
  top: "inception_3a/pool_proj_bn"
  param {
    lr_mult: 1
    decay_mult: 0
  }
  param {
    lr_mult: 1
    decay_mult: 0
  }
  bn_param {
    slope_filler {
      type: "constant"
      value: 1
    }
    bias_filler {
      type: "constant"
      value: 0
    }
    frozen: true
  }
}
layer {
  name: "inception_3a/relu_pool_proj"
  type: "ReLU"
  bottom: "inception_3a/pool_proj_bn"
  top: "inception_3a/pool_proj_bn"
}
layer {
  name: "inception_3a/output"
  type: "Concat"
  bottom: "inception_3a/1x1_bn"
  bottom: "inception_3a/3x3_bn"
  bottom: "inception_3a/double_3x3_2_bn"
  bottom: "inception_3a/pool_proj_bn"
  top: "inception_3a/output"
}
layer {
  name: "inception_3b/1x1"
  type: "Convolution"
  bottom: "inception_3a/output"
  top: "inception_3b/1x1"
  param {
    lr_mult: 1
    decay_mult: 1
  }
  param {
    lr_mult: 2
    decay_mult: 0
  }
  convolution_param {
    num_output: 64
    kernel_size: 1
    weight_filler {
      type: "xavier"
    }
    bias_filler {
      type: "constant"
      value: 0.2
    }
  }
}
layer {
  name: "inception_3b/1x1_bn"
  type: "BN"
  bottom: "inception_3b/1x1"
  top: "inception_3b/1x1_bn"
  param {
    lr_mult: 1
    decay_mult: 0
  }
  param {
    lr_mult: 1
    decay_mult: 0
  }
  bn_param {
    slope_filler {
      type: "constant"
      value: 1
    }
    bias_filler {
      type: "constant"
      value: 0
    }
    frozen: true
  }
}
layer {
  name: "inception_3b/relu_1x1"
  type: "ReLU"
  bottom: "inception_3b/1x1_bn"
  top: "inception_3b/1x1_bn"
}
layer {
  name: "inception_3b/3x3_reduce"
  type: "Convolution"
  bottom: "inception_3a/output"
  top: "inception_3b/3x3_reduce"
  param {
    lr_mult: 1
    decay_mult: 1
  }
  param {
    lr_mult: 2
    decay_mult: 0
  }
  convolution_param {
    num_output: 64
    kernel_size: 1
    weight_filler {
      type: "xavier"
    }
    bias_filler {
      type: "constant"
      value: 0.2
    }
  }
}
layer {
  name: "inception_3b/3x3_reduce_bn"
  type: "BN"
  bottom: "inception_3b/3x3_reduce"
  top: "inception_3b/3x3_reduce_bn"
  param {
    lr_mult: 1
    decay_mult: 0
  }
  param {
    lr_mult: 1
    decay_mult: 0
  }
  bn_param {
    slope_filler {
      type: "constant"
      value: 1
    }
    bias_filler {
      type: "constant"
      value: 0
    }
    frozen: true
  }
}
layer {
  name: "inception_3b/relu_3x3_reduce"
  type: "ReLU"
  bottom: "inception_3b/3x3_reduce_bn"
  top: "inception_3b/3x3_reduce_bn"
}
layer {
  name: "inception_3b/3x3"
  type: "Convolution"
  bottom: "inception_3b/3x3_reduce_bn"
  top: "inception_3b/3x3"
  param {
    lr_mult: 1
    decay_mult: 1
  }
  param {
    lr_mult: 2
    decay_mult: 0
  }
  convolution_param {
    num_output: 96
    pad: 1
    kernel_size: 3
    weight_filler {
      type: "xavier"
    }
    bias_filler {
      type: "constant"
      value: 0.2
    }
  }
}
layer {
  name: "inception_3b/3x3_bn"
  type: "BN"
  bottom: "inception_3b/3x3"
  top: "inception_3b/3x3_bn"
  param {
    lr_mult: 1
    decay_mult: 0
  }
  param {
    lr_mult: 1
    decay_mult: 0
  }
  bn_param {
    slope_filler {
      type: "constant"
      value: 1
    }
    bias_filler {
      type: "constant"
      value: 0
    }
    frozen: true
  }
}
layer {
  name: "inception_3b/relu_3x3"
  type: "ReLU"
  bottom: "inception_3b/3x3_bn"
  top: "inception_3b/3x3_bn"
}
layer {
  name: "inception_3b/double_3x3_reduce"
  type: "Convolution"
  bottom: "inception_3a/output"
  top: "inception_3b/double_3x3_reduce"
  param {
    lr_mult: 1
    decay_mult: 1
  }
  param {
    lr_mult: 2
    decay_mult: 0
  }
  convolution_param {
    num_output: 64
    kernel_size: 1
    weight_filler {
      type: "xavier"
    }
    bias_filler {
      type: "constant"
      value: 0.2
    }
  }
}
layer {
  name: "inception_3b/double_3x3_reduce_bn"
  type: "BN"
  bottom: "inception_3b/double_3x3_reduce"
  top: "inception_3b/double_3x3_reduce_bn"
  param {
    lr_mult: 1
    decay_mult: 0
  }
  param {
    lr_mult: 1
    decay_mult: 0
  }
  bn_param {
    slope_filler {
      type: "constant"
      value: 1
    }
    bias_filler {
      type: "constant"
      value: 0
    }
    frozen: true
  }
}
layer {
  name: "inception_3b/relu_double_3x3_reduce"
  type: "ReLU"
  bottom: "inception_3b/double_3x3_reduce_bn"
  top: "inception_3b/double_3x3_reduce_bn"
}
layer {
  name: "inception_3b/double_3x3_1"
  type: "Convolution"
  bottom: "inception_3b/double_3x3_reduce_bn"
  top: "inception_3b/double_3x3_1"
  param {
    lr_mult: 1
    decay_mult: 1
  }
  param {
    lr_mult: 2
    decay_mult: 0
  }
  convolution_param {
    num_output: 96
    pad: 1
    kernel_size: 3
    weight_filler {
      type: "xavier"
    }
    bias_filler {
      type: "constant"
      value: 0.2
    }
  }
}
layer {
  name: "inception_3b/double_3x3_1_bn"
  type: "BN"
  bottom: "inception_3b/double_3x3_1"
  top: "inception_3b/double_3x3_1_bn"
  param {
    lr_mult: 1
    decay_mult: 0
  }
  param {
    lr_mult: 1
    decay_mult: 0
  }
  bn_param {
    slope_filler {
      type: "constant"
      value: 1
    }
    bias_filler {
      type: "constant"
      value: 0
    }
    frozen: true
  }
}
layer {
  name: "inception_3b/relu_double_3x3_1"
  type: "ReLU"
  bottom: "inception_3b/double_3x3_1_bn"
  top: "inception_3b/double_3x3_1_bn"
}
layer {
  name: "inception_3b/double_3x3_2"
  type: "Convolution"
  bottom: "inception_3b/double_3x3_1_bn"
  top: "inception_3b/double_3x3_2"
  param {
    lr_mult: 1
    decay_mult: 1
  }
  param {
    lr_mult: 2
    decay_mult: 0
  }
  convolution_param {
    num_output: 96
    pad: 1
    kernel_size: 3
    weight_filler {
      type: "xavier"
    }
    bias_filler {
      type: "constant"
      value: 0.2
    }
  }
}
layer {
  name: "inception_3b/double_3x3_2_bn"
  type: "BN"
  bottom: "inception_3b/double_3x3_2"
  top: "inception_3b/double_3x3_2_bn"
  param {
    lr_mult: 1
    decay_mult: 0
  }
  param {
    lr_mult: 1
    decay_mult: 0
  }
  bn_param {
    slope_filler {
      type: "constant"
      value: 1
    }
    bias_filler {
      type: "constant"
      value: 0
    }
    frozen: true
  }
}
layer {
  name: "inception_3b/relu_double_3x3_2"
  type: "ReLU"
  bottom: "inception_3b/double_3x3_2_bn"
  top: "inception_3b/double_3x3_2_bn"
}
layer {
  name: "inception_3b/pool"
  type: "Pooling"
  bottom: "inception_3a/output"
  top: "inception_3b/pool"
  pooling_param {
    pool: AVE
    kernel_size: 3
    stride: 1
    pad: 1
  }
}
layer {
  name: "inception_3b/pool_proj"
  type: "Convolution"
  bottom: "inception_3b/pool"
  top: "inception_3b/pool_proj"
  param {
    lr_mult: 1
    decay_mult: 1
  }
  param {
    lr_mult: 2
    decay_mult: 0
  }
  convolution_param {
    num_output: 64
    kernel_size: 1
    weight_filler {
      type: "xavier"
    }
    bias_filler {
      type: "constant"
      value: 0.2
    }
  }
}
layer {
  name: "inception_3b/pool_proj_bn"
  type: "BN"
  bottom: "inception_3b/pool_proj"
  top: "inception_3b/pool_proj_bn"
  param {
    lr_mult: 1
    decay_mult: 0
  }
  param {
    lr_mult: 1
    decay_mult: 0
  }
  bn_param {
    slope_filler {
      type: "constant"
      value: 1
    }
    bias_filler {
      type: "constant"
      value: 0
    }
    frozen: true
  }
}
layer {
  name: "inception_3b/relu_pool_proj"
  type: "ReLU"
  bottom: "inception_3b/pool_proj_bn"
  top: "inception_3b/pool_proj_bn"
}
layer {
  name: "inception_3b/output"
  type: "Concat"
  bottom: "inception_3b/1x1_bn"
  bottom: "inception_3b/3x3_bn"
  bottom: "inception_3b/double_3x3_2_bn"
  bottom: "inception_3b/pool_proj_bn"
  top: "inception_3b/output"
}
layer {
  name: "inception_3c/3x3_reduce"
  type: "Convolution"
  bottom: "inception_3b/output"
  top: "inception_3c/3x3_reduce"
  param {
    lr_mult: 1
    decay_mult: 1
  }
  param {
    lr_mult: 2
    decay_mult: 0
  }
  convolution_param {
    num_output: 128
    kernel_size: 1
    weight_filler {
      type: "xavier"
    }
    bias_filler {
      type: "constant"
      value: 0.2
    }
  }
}
layer {
  name: "inception_3c/3x3_reduce_bn"
  type: "BN"
  bottom: "inception_3c/3x3_reduce"
  top: "inception_3c/3x3_reduce_bn"
  param {
    lr_mult: 1
    decay_mult: 0
  }
  param {
    lr_mult: 1
    decay_mult: 0
  }
  bn_param {
    slope_filler {
      type: "constant"
      value: 1
    }
    bias_filler {
      type: "constant"
      value: 0
    }
    frozen: true
  }
}
layer {
  name: "inception_3c/relu_3x3_reduce"
  type: "ReLU"
  bottom: "inception_3c/3x3_reduce_bn"
  top: "inception_3c/3x3_reduce_bn"
}
layer {
  name: "inception_3c/3x3"
  type: "Convolution"
  bottom: "inception_3c/3x3_reduce_bn"
  top: "inception_3c/3x3"
  param {
    lr_mult: 1
    decay_mult: 1
  }
  param {
    lr_mult: 2
    decay_mult: 0
  }
  convolution_param {
    num_output: 160
    pad: 1
    kernel_size: 3
    stride: 2
    weight_filler {
      type: "xavier"
    }
    bias_filler {
      type: "constant"
      value: 0.2
    }
  }
}
layer {
  name: "inception_3c/3x3_bn"
  type: "BN"
  bottom: "inception_3c/3x3"
  top: "inception_3c/3x3_bn"
  param {
    lr_mult: 1
    decay_mult: 0
  }
  param {
    lr_mult: 1
    decay_mult: 0
  }
  bn_param {
    slope_filler {
      type: "constant"
      value: 1
    }
    bias_filler {
      type: "constant"
      value: 0
    }
    frozen: true
  }
}
layer {
  name: "inception_3c/relu_3x3"
  type: "ReLU"
  bottom: "inception_3c/3x3_bn"
  top: "inception_3c/3x3_bn"
}
layer {
  name: "inception_3c/double_3x3_reduce"
  type: "Convolution"
  bottom: "inception_3b/output"
  top: "inception_3c/double_3x3_reduce"
  param {
    lr_mult: 1
    decay_mult: 1
  }
  param {
    lr_mult: 2
    decay_mult: 0
  }
  convolution_param {
    num_output: 64
    kernel_size: 1
    weight_filler {
      type: "xavier"
    }
    bias_filler {
      type: "constant"
      value: 0.2
    }
  }
}
layer {
  name: "inception_3c/double_3x3_reduce_bn"
  type: "BN"
  bottom: "inception_3c/double_3x3_reduce"
  top: "inception_3c/double_3x3_reduce_bn"
  param {
    lr_mult: 1
    decay_mult: 0
  }
  param {
    lr_mult: 1
    decay_mult: 0
  }
  bn_param {
    slope_filler {
      type: "constant"
      value: 1
    }
    bias_filler {
      type: "constant"
      value: 0
    }
    frozen: true
  }
}
layer {
  name: "inception_3c/relu_double_3x3_reduce"
  type: "ReLU"
  bottom: "inception_3c/double_3x3_reduce_bn"
  top: "inception_3c/double_3x3_reduce_bn"
}
layer {
  name: "inception_3c/double_3x3_1"
  type: "Convolution"
  bottom: "inception_3c/double_3x3_reduce_bn"
  top: "inception_3c/double_3x3_1"
  param {
    lr_mult: 1
    decay_mult: 1
  }
  param {
    lr_mult: 2
    decay_mult: 0
  }
  convolution_param {
    num_output: 96
    pad: 1
    kernel_size: 3
    weight_filler {
      type: "xavier"
    }
    bias_filler {
      type: "constant"
      value: 0.2
    }
  }
}
layer {
  name: "inception_3c/double_3x3_1_bn"
  type: "BN"
  bottom: "inception_3c/double_3x3_1"
  top: "inception_3c/double_3x3_1_bn"
  param {
    lr_mult: 1
    decay_mult: 0
  }
  param {
    lr_mult: 1
    decay_mult: 0
  }
  bn_param {
    slope_filler {
      type: "constant"
      value: 1
    }
    bias_filler {
      type: "constant"
      value: 0
    }
    frozen: true
  }
}
layer {
  name: "inception_3c/relu_double_3x3_1"
  type: "ReLU"
  bottom: "inception_3c/double_3x3_1_bn"
  top: "inception_3c/double_3x3_1_bn"
}
layer {
  name: "inception_3c/double_3x3_2"
  type: "Convolution"
  bottom: "inception_3c/double_3x3_1_bn"
  top: "inception_3c/double_3x3_2"
  param {
    lr_mult: 1
    decay_mult: 1
  }
  param {
    lr_mult: 2
    decay_mult: 0
  }
  convolution_param {
    num_output: 96
    pad: 1
    kernel_size: 3
    stride: 2
    weight_filler {
      type: "xavier"
    }
    bias_filler {
      type: "constant"
      value: 0.2
    }
  }
}
layer {
  name: "inception_3c/double_3x3_2_bn"
  type: "BN"
  bottom: "inception_3c/double_3x3_2"
  top: "inception_3c/double_3x3_2_bn"
  param {
    lr_mult: 1
    decay_mult: 0
  }
  param {
    lr_mult: 1
    decay_mult: 0
  }
  bn_param {
    slope_filler {
      type: "constant"
      value: 1
    }
    bias_filler {
      type: "constant"
      value: 0
    }
    frozen: true
  }
}
layer {
  name: "inception_3c/relu_double_3x3_2"
  type: "ReLU"
  bottom: "inception_3c/double_3x3_2_bn"
  top: "inception_3c/double_3x3_2_bn"
}
layer {
  name: "inception_3c/pool"
  type: "Pooling"
  bottom: "inception_3b/output"
  top: "inception_3c/pool"
  pooling_param {
    pool: MAX
    kernel_size: 3
    stride: 2
  }
}
layer {
  name: "inception_3c/output"
  type: "Concat"
  bottom: "inception_3c/3x3_bn"
  bottom: "inception_3c/double_3x3_2_bn"
  bottom: "inception_3c/pool"
  top: "inception_3c/output"
}
layer {
  name: "inception_4a/1x1"
  type: "Convolution"
  bottom: "inception_3c/output"
  top: "inception_4a/1x1"
  param {
    lr_mult: 1
    decay_mult: 1
  }
  param {
    lr_mult: 2
    decay_mult: 0
  }
  convolution_param {
    num_output: 224
    kernel_size: 1
    weight_filler {
      type: "xavier"
    }
    bias_filler {
      type: "constant"
      value: 0.2
    }
  }
}
layer {
  name: "inception_4a/1x1_bn"
  type: "BN"
  bottom: "inception_4a/1x1"
  top: "inception_4a/1x1_bn"
  param {
    lr_mult: 1
    decay_mult: 0
  }
  param {
    lr_mult: 1
    decay_mult: 0
  }
  bn_param {
    slope_filler {
      type: "constant"
      value: 1
    }
    bias_filler {
      type: "constant"
      value: 0
    }
    frozen: true
  }
}
layer {
  name: "inception_4a/relu_1x1"
  type: "ReLU"
  bottom: "inception_4a/1x1_bn"
  top: "inception_4a/1x1_bn"
}
layer {
  name: "inception_4a/3x3_reduce"
  type: "Convolution"
  bottom: "inception_3c/output"
  top: "inception_4a/3x3_reduce"
  param {
    lr_mult: 1
    decay_mult: 1
  }
  param {
    lr_mult: 2
    decay_mult: 0
  }
  convolution_param {
    num_output: 64
    kernel_size: 1
    weight_filler {
      type: "xavier"
    }
    bias_filler {
      type: "constant"
      value: 0.2
    }
  }
}
layer {
  name: "inception_4a/3x3_reduce_bn"
  type: "BN"
  bottom: "inception_4a/3x3_reduce"
  top: "inception_4a/3x3_reduce_bn"
  param {
    lr_mult: 1
    decay_mult: 0
  }
  param {
    lr_mult: 1
    decay_mult: 0
  }
  bn_param {
    slope_filler {
      type: "constant"
      value: 1
    }
    bias_filler {
      type: "constant"
      value: 0
    }
    frozen: true
  }
}
layer {
  name: "inception_4a/relu_3x3_reduce"
  type: "ReLU"
  bottom: "inception_4a/3x3_reduce_bn"
  top: "inception_4a/3x3_reduce_bn"
}
layer {
  name: "inception_4a/3x3"
  type: "Convolution"
  bottom: "inception_4a/3x3_reduce_bn"
  top: "inception_4a/3x3"
  param {
    lr_mult: 1
    decay_mult: 1
  }
  param {
    lr_mult: 2
    decay_mult: 0
  }
  convolution_param {
    num_output: 96
    pad: 1
    kernel_size: 3
    weight_filler {
      type: "xavier"
    }
    bias_filler {
      type: "constant"
      value: 0.2
    }
  }
}
layer {
  name: "inception_4a/3x3_bn"
  type: "BN"
  bottom: "inception_4a/3x3"
  top: "inception_4a/3x3_bn"
  param {
    lr_mult: 1
    decay_mult: 0
  }
  param {
    lr_mult: 1
    decay_mult: 0
  }
  bn_param {
    slope_filler {
      type: "constant"
      value: 1
    }
    bias_filler {
      type: "constant"
      value: 0
    }
    frozen: true
  }
}
layer {
  name: "inception_4a/relu_3x3"
  type: "ReLU"
  bottom: "inception_4a/3x3_bn"
  top: "inception_4a/3x3_bn"
}
layer {
  name: "inception_4a/double_3x3_reduce"
  type: "Convolution"
  bottom: "inception_3c/output"
  top: "inception_4a/double_3x3_reduce"
  param {
    lr_mult: 1
    decay_mult: 1
  }
  param {
    lr_mult: 2
    decay_mult: 0
  }
  convolution_param {
    num_output: 96
    kernel_size: 1
    weight_filler {
      type: "xavier"
    }
    bias_filler {
      type: "constant"
      value: 0.2
    }
  }
}
layer {
  name: "inception_4a/double_3x3_reduce_bn"
  type: "BN"
  bottom: "inception_4a/double_3x3_reduce"
  top: "inception_4a/double_3x3_reduce_bn"
  param {
    lr_mult: 1
    decay_mult: 0
  }
  param {
    lr_mult: 1
    decay_mult: 0
  }
  bn_param {
    slope_filler {
      type: "constant"
      value: 1
    }
    bias_filler {
      type: "constant"
      value: 0
    }
    frozen: true
  }
}
layer {
  name: "inception_4a/relu_double_3x3_reduce"
  type: "ReLU"
  bottom: "inception_4a/double_3x3_reduce_bn"
  top: "inception_4a/double_3x3_reduce_bn"
}
layer {
  name: "inception_4a/double_3x3_1"
  type: "Convolution"
  bottom: "inception_4a/double_3x3_reduce_bn"
  top: "inception_4a/double_3x3_1"
  param {
    lr_mult: 1
    decay_mult: 1
  }
  param {
    lr_mult: 2
    decay_mult: 0
  }
  convolution_param {
    num_output: 128
    pad: 1
    kernel_size: 3
    weight_filler {
      type: "xavier"
    }
    bias_filler {
      type: "constant"
      value: 0.2
    }
  }
}
layer {
  name: "inception_4a/double_3x3_1_bn"
  type: "BN"
  bottom: "inception_4a/double_3x3_1"
  top: "inception_4a/double_3x3_1_bn"
  param {
    lr_mult: 1
    decay_mult: 0
  }
  param {
    lr_mult: 1
    decay_mult: 0
  }
  bn_param {
    slope_filler {
      type: "constant"
      value: 1
    }
    bias_filler {
      type: "constant"
      value: 0
    }
    frozen: true
  }
}
layer {
  name: "inception_4a/relu_double_3x3_1"
  type: "ReLU"
  bottom: "inception_4a/double_3x3_1_bn"
  top: "inception_4a/double_3x3_1_bn"
}
layer {
  name: "inception_4a/double_3x3_2"
  type: "Convolution"
  bottom: "inception_4a/double_3x3_1_bn"
  top: "inception_4a/double_3x3_2"
  param {
    lr_mult: 1
    decay_mult: 1
  }
  param {
    lr_mult: 2
    decay_mult: 0
  }
  convolution_param {
    num_output: 128
    pad: 1
    kernel_size: 3
    weight_filler {
      type: "xavier"
    }
    bias_filler {
      type: "constant"
      value: 0.2
    }
  }
}
layer {
  name: "inception_4a/double_3x3_2_bn"
  type: "BN"
  bottom: "inception_4a/double_3x3_2"
  top: "inception_4a/double_3x3_2_bn"
  param {
    lr_mult: 1
    decay_mult: 0
  }
  param {
    lr_mult: 1
    decay_mult: 0
  }
  bn_param {
    slope_filler {
      type: "constant"
      value: 1
    }
    bias_filler {
      type: "constant"
      value: 0
    }
    frozen: true
  }
}
layer {
  name: "inception_4a/relu_double_3x3_2"
  type: "ReLU"
  bottom: "inception_4a/double_3x3_2_bn"
  top: "inception_4a/double_3x3_2_bn"
}
layer {
  name: "inception_4a/pool"
  type: "Pooling"
  bottom: "inception_3c/output"
  top: "inception_4a/pool"
  pooling_param {
    pool: AVE
    kernel_size: 3
    stride: 1
    pad: 1
  }
}
layer {
  name: "inception_4a/pool_proj"
  type: "Convolution"
  bottom: "inception_4a/pool"
  top: "inception_4a/pool_proj"
  param {
    lr_mult: 1
    decay_mult: 1
  }
  param {
    lr_mult: 2
    decay_mult: 0
  }
  convolution_param {
    num_output: 128
    kernel_size: 1
    weight_filler {
      type: "xavier"
    }
    bias_filler {
      type: "constant"
      value: 0.2
    }
  }
}
layer {
  name: "inception_4a/pool_proj_bn"
  type: "BN"
  bottom: "inception_4a/pool_proj"
  top: "inception_4a/pool_proj_bn"
  param {
    lr_mult: 1
    decay_mult: 0
  }
  param {
    lr_mult: 1
    decay_mult: 0
  }
  bn_param {
    slope_filler {
      type: "constant"
      value: 1
    }
    bias_filler {
      type: "constant"
      value: 0
    }
    frozen: true
  }
}
layer {
  name: "inception_4a/relu_pool_proj"
  type: "ReLU"
  bottom: "inception_4a/pool_proj_bn"
  top: "inception_4a/pool_proj_bn"
}
layer {
  name: "inception_4a/output"
  type: "Concat"
  bottom: "inception_4a/1x1_bn"
  bottom: "inception_4a/3x3_bn"
  bottom: "inception_4a/double_3x3_2_bn"
  bottom: "inception_4a/pool_proj_bn"
  top: "inception_4a/output"
}
layer {
  name: "inception_4b/1x1"
  type: "Convolution"
  bottom: "inception_4a/output"
  top: "inception_4b/1x1"
  param {
    lr_mult: 1
    decay_mult: 1
  }
  param {
    lr_mult: 2
    decay_mult: 0
  }
  con
I1015 04:13:07.889261   246 layer_factory.hpp:74] Creating layer data
I1015 04:13:07.889302   246 net.cpp:99] Creating Layer data
I1015 04:13:07.889320   246 net.cpp:435] data -> data
I1015 04:13:07.889366   246 net.cpp:435] data -> label
I1015 04:13:07.889381   246 net.cpp:163] Setting up data
I1015 04:13:07.889461   246 video_data_layer.cpp:34] Opening file: /li_wei/AD/code/ad_exp/train_split_list.txt
I1015 04:13:07.890020   246 video_data_layer.cpp:50] A total of 10 videos.
I1015 04:13:07.895989   246 video_data_layer.cpp:90] output data size: 32,9,224,224
I1015 04:13:07.896123   246 net.cpp:170] Top shape: 32 9 224 224 (14450688)
I1015 04:13:07.896133   246 net.cpp:170] Top shape: 32 1 1 1 (32)
I1015 04:13:07.896140   246 layer_factory.hpp:74] Creating layer reshape_data
I1015 04:13:07.896158   246 net.cpp:99] Creating Layer reshape_data
I1015 04:13:07.896168   246 net.cpp:479] reshape_data <- data
I1015 04:13:07.896188   246 net.cpp:435] reshape_data -> reshape_data
I1015 04:13:07.896203   246 net.cpp:163] Setting up reshape_data
I1015 04:13:07.896332   246 net.cpp:170] Top shape: 96 3 224 224 (14450688)
I1015 04:13:07.896339   246 layer_factory.hpp:74] Creating layer conv1/7x7_s2
I1015 04:13:07.896351   246 net.cpp:99] Creating Layer conv1/7x7_s2
I1015 04:13:07.896358   246 net.cpp:479] conv1/7x7_s2 <- reshape_data
I1015 04:13:07.896366   246 net.cpp:435] conv1/7x7_s2 -> conv1/7x7_s2
I1015 04:13:07.896379   246 net.cpp:163] Setting up conv1/7x7_s2
I1015 04:13:09.640058   246 net.cpp:170] Top shape: 96 64 112 112 (77070336)
I1015 04:13:09.640220   246 layer_factory.hpp:74] Creating layer conv1/7x7_s2_bn
I1015 04:13:09.640264   246 layer_factory.cpp:192] Layer conv1/7x7_s2_bn is using CUDNN engine.
I1015 04:13:09.640344   246 net.cpp:99] Creating Layer conv1/7x7_s2_bn
I1015 04:13:09.640372   246 net.cpp:479] conv1/7x7_s2_bn <- conv1/7x7_s2
I1015 04:13:09.640417   246 net.cpp:435] conv1/7x7_s2_bn -> conv1/7x7_s2_bn
I1015 04:13:09.640466   246 net.cpp:163] Setting up conv1/7x7_s2_bn
I1015 04:13:09.642976   246 cudnn_bn_layer.cpp:30] using cuDNN BN engine
I1015 04:13:09.643050   246 net.cpp:170] Top shape: 96 64 112 112 (77070336)
I1015 04:13:09.643091   246 layer_factory.hpp:74] Creating layer conv1/relu_7x7
I1015 04:13:09.643116   246 net.cpp:99] Creating Layer conv1/relu_7x7
I1015 04:13:09.643129   246 net.cpp:479] conv1/relu_7x7 <- conv1/7x7_s2_bn
I1015 04:13:09.643167   246 net.cpp:424] conv1/relu_7x7 -> conv1/7x7_s2_bn (in-place)
I1015 04:13:09.643196   246 net.cpp:163] Setting up conv1/relu_7x7
I1015 04:13:09.645022   246 net.cpp:170] Top shape: 96 64 112 112 (77070336)
I1015 04:13:09.645056   246 layer_factory.hpp:74] Creating layer pool1/3x3_s2
I1015 04:13:09.645094   246 net.cpp:99] Creating Layer pool1/3x3_s2
I1015 04:13:09.645113   246 net.cpp:479] pool1/3x3_s2 <- conv1/7x7_s2_bn
I1015 04:13:09.645136   246 net.cpp:435] pool1/3x3_s2 -> pool1/3x3_s2
I1015 04:13:09.645159   246 net.cpp:163] Setting up pool1/3x3_s2
I1015 04:13:09.647135   246 net.cpp:170] Top shape: 96 64 56 56 (19267584)
I1015 04:13:09.647171   246 layer_factory.hpp:74] Creating layer conv2/3x3_reduce
I1015 04:13:09.647215   246 net.cpp:99] Creating Layer conv2/3x3_reduce
I1015 04:13:09.647231   246 net.cpp:479] conv2/3x3_reduce <- pool1/3x3_s2
I1015 04:13:09.647260   246 net.cpp:435] conv2/3x3_reduce -> conv2/3x3_reduce
I1015 04:13:09.647281   246 net.cpp:163] Setting up conv2/3x3_reduce
I1015 04:13:09.704955   246 net.cpp:170] Top shape: 96 64 56 56 (19267584)
I1015 04:13:09.705020   246 layer_factory.hpp:74] Creating layer conv2/3x3_reduce_bn
I1015 04:13:09.705051   246 layer_factory.cpp:192] Layer conv2/3x3_reduce_bn is using CUDNN engine.
I1015 04:13:09.705076   246 net.cpp:99] Creating Layer conv2/3x3_reduce_bn
I1015 04:13:09.705092   246 net.cpp:479] conv2/3x3_reduce_bn <- conv2/3x3_reduce
I1015 04:13:09.705121   246 net.cpp:435] conv2/3x3_reduce_bn -> conv2/3x3_reduce_bn
I1015 04:13:09.705142   246 net.cpp:163] Setting up conv2/3x3_reduce_bn
I1015 04:13:09.713168   246 cudnn_bn_layer.cpp:30] using cuDNN BN engine
I1015 04:13:09.713258   246 net.cpp:170] Top shape: 96 64 56 56 (19267584)
I1015 04:13:09.713284   246 layer_factory.hpp:74] Creating layer conv2/relu_3x3_reduce
I1015 04:13:09.713299   246 net.cpp:99] Creating Layer conv2/relu_3x3_reduce
I1015 04:13:09.713310   246 net.cpp:479] conv2/relu_3x3_reduce <- conv2/3x3_reduce_bn
I1015 04:13:09.713327   246 net.cpp:424] conv2/relu_3x3_reduce -> conv2/3x3_reduce_bn (in-place)
I1015 04:13:09.713342   246 net.cpp:163] Setting up conv2/relu_3x3_reduce
I1015 04:13:09.714766   246 net.cpp:170] Top shape: 96 64 56 56 (19267584)
I1015 04:13:09.714788   246 layer_factory.hpp:74] Creating layer conv2/3x3
I1015 04:13:09.714814   246 net.cpp:99] Creating Layer conv2/3x3
I1015 04:13:09.714826   246 net.cpp:479] conv2/3x3 <- conv2/3x3_reduce_bn
I1015 04:13:09.714843   246 net.cpp:435] conv2/3x3 -> conv2/3x3
I1015 04:13:09.714862   246 net.cpp:163] Setting up conv2/3x3
I1015 04:13:09.940876   246 net.cpp:170] Top shape: 96 192 56 56 (57802752)
I1015 04:13:09.940969   246 layer_factory.hpp:74] Creating layer conv2/3x3_bn
I1015 04:13:09.940987   246 layer_factory.cpp:192] Layer conv2/3x3_bn is using CUDNN engine.
I1015 04:13:09.941020   246 net.cpp:99] Creating Layer conv2/3x3_bn
I1015 04:13:09.941035   246 net.cpp:479] conv2/3x3_bn <- conv2/3x3
I1015 04:13:09.941062   246 net.cpp:435] conv2/3x3_bn -> conv2/3x3_bn
I1015 04:13:09.941097   246 net.cpp:163] Setting up conv2/3x3_bn
I1015 04:13:09.948354   246 cudnn_bn_layer.cpp:30] using cuDNN BN engine
I1015 04:13:09.948442   246 net.cpp:170] Top shape: 96 192 56 56 (57802752)
I1015 04:13:09.948503   246 layer_factory.hpp:74] Creating layer conv2/relu_3x3
I1015 04:13:09.948534   246 net.cpp:99] Creating Layer conv2/relu_3x3
I1015 04:13:09.948590   246 net.cpp:479] conv2/relu_3x3 <- conv2/3x3_bn
I1015 04:13:09.948619   246 net.cpp:424] conv2/relu_3x3 -> conv2/3x3_bn (in-place)
I1015 04:13:09.948633   246 net.cpp:163] Setting up conv2/relu_3x3
I1015 04:13:09.950805   246 net.cpp:170] Top shape: 96 192 56 56 (57802752)
I1015 04:13:09.950829   246 layer_factory.hpp:74] Creating layer pool2/3x3_s2
I1015 04:13:09.950855   246 net.cpp:99] Creating Layer pool2/3x3_s2
I1015 04:13:09.950865   246 net.cpp:479] pool2/3x3_s2 <- conv2/3x3_bn
I1015 04:13:09.950886   246 net.cpp:435] pool2/3x3_s2 -> pool2/3x3_s2
I1015 04:13:09.950898   246 net.cpp:163] Setting up pool2/3x3_s2
I1015 04:13:09.951709   246 net.cpp:170] Top shape: 96 192 28 28 (14450688)
I1015 04:13:09.951733   246 layer_factory.hpp:74] Creating layer pool2/3x3_s2_pool2/3x3_s2_0_split
I1015 04:13:09.951766   246 net.cpp:99] Creating Layer pool2/3x3_s2_pool2/3x3_s2_0_split
I1015 04:13:09.951777   246 net.cpp:479] pool2/3x3_s2_pool2/3x3_s2_0_split <- pool2/3x3_s2
I1015 04:13:09.951789   246 net.cpp:435] pool2/3x3_s2_pool2/3x3_s2_0_split -> pool2/3x3_s2_pool2/3x3_s2_0_split_0
I1015 04:13:09.951812   246 net.cpp:435] pool2/3x3_s2_pool2/3x3_s2_0_split -> pool2/3x3_s2_pool2/3x3_s2_0_split_1
I1015 04:13:09.951824   246 net.cpp:435] pool2/3x3_s2_pool2/3x3_s2_0_split -> pool2/3x3_s2_pool2/3x3_s2_0_split_2
I1015 04:13:09.951839   246 net.cpp:435] pool2/3x3_s2_pool2/3x3_s2_0_split -> pool2/3x3_s2_pool2/3x3_s2_0_split_3
I1015 04:13:09.951853   246 net.cpp:163] Setting up pool2/3x3_s2_pool2/3x3_s2_0_split
I1015 04:13:09.951870   246 net.cpp:170] Top shape: 96 192 28 28 (14450688)
I1015 04:13:09.951882   246 net.cpp:170] Top shape: 96 192 28 28 (14450688)
I1015 04:13:09.951891   246 net.cpp:170] Top shape: 96 192 28 28 (14450688)
I1015 04:13:09.951903   246 net.cpp:170] Top shape: 96 192 28 28 (14450688)
I1015 04:13:09.951922   246 layer_factory.hpp:74] Creating layer inception_3a/1x1
I1015 04:13:09.951942   246 net.cpp:99] Creating Layer inception_3a/1x1
I1015 04:13:09.951954   246 net.cpp:479] inception_3a/1x1 <- pool2/3x3_s2_pool2/3x3_s2_0_split_0
I1015 04:13:09.951973   246 net.cpp:435] inception_3a/1x1 -> inception_3a/1x1
I1015 04:13:09.951990   246 net.cpp:163] Setting up inception_3a/1x1
I1015 04:13:09.988600   246 net.cpp:170] Top shape: 96 64 28 28 (4816896)
I1015 04:13:09.988627   246 layer_factory.hpp:74] Creating layer inception_3a/1x1_bn
I1015 04:13:09.988636   246 layer_factory.cpp:192] Layer inception_3a/1x1_bn is using CUDNN engine.
I1015 04:13:09.988647   246 net.cpp:99] Creating Layer inception_3a/1x1_bn
I1015 04:13:09.988656   246 net.cpp:479] inception_3a/1x1_bn <- inception_3a/1x1
I1015 04:13:09.988667   246 net.cpp:435] inception_3a/1x1_bn -> inception_3a/1x1_bn
I1015 04:13:09.988685   246 net.cpp:163] Setting up inception_3a/1x1_bn
I1015 04:13:09.989274   246 cudnn_bn_layer.cpp:30] using cuDNN BN engine
I1015 04:13:09.989305   246 net.cpp:170] Top shape: 96 64 28 28 (4816896)
I1015 04:13:09.989320   246 layer_factory.hpp:74] Creating layer inception_3a/relu_1x1
I1015 04:13:09.989336   246 net.cpp:99] Creating Layer inception_3a/relu_1x1
I1015 04:13:09.989346   246 net.cpp:479] inception_3a/relu_1x1 <- inception_3a/1x1_bn
I1015 04:13:09.989357   246 net.cpp:424] inception_3a/relu_1x1 -> inception_3a/1x1_bn (in-place)
I1015 04:13:09.989367   246 net.cpp:163] Setting up inception_3a/relu_1x1
I1015 04:13:09.990986   246 net.cpp:170] Top shape: 96 64 28 28 (4816896)
I1015 04:13:09.991003   246 layer_factory.hpp:74] Creating layer inception_3a/3x3_reduce
I1015 04:13:09.991019   246 net.cpp:99] Creating Layer inception_3a/3x3_reduce
I1015 04:13:09.991026   246 net.cpp:479] inception_3a/3x3_reduce <- pool2/3x3_s2_pool2/3x3_s2_0_split_1
I1015 04:13:09.991042   246 net.cpp:435] inception_3a/3x3_reduce -> inception_3a/3x3_reduce
I1015 04:13:09.991052   246 net.cpp:163] Setting up inception_3a/3x3_reduce
I1015 04:13:10.023094   246 net.cpp:170] Top shape: 96 64 28 28 (4816896)
I1015 04:13:10.023118   246 layer_factory.hpp:74] Creating layer inception_3a/3x3_reduce_bn
I1015 04:13:10.023128   246 layer_factory.cpp:192] Layer inception_3a/3x3_reduce_bn is using CUDNN engine.
I1015 04:13:10.023169   246 net.cpp:99] Creating Layer inception_3a/3x3_reduce_bn
I1015 04:13:10.023180   246 net.cpp:479] inception_3a/3x3_reduce_bn <- inception_3a/3x3_reduce
I1015 04:13:10.023195   246 net.cpp:435] inception_3a/3x3_reduce_bn -> inception_3a/3x3_reduce_bn
I1015 04:13:10.023205   246 net.cpp:163] Setting up inception_3a/3x3_reduce_bn
I1015 04:13:10.023881   246 cudnn_bn_layer.cpp:30] using cuDNN BN engine
I1015 04:13:10.023921   246 net.cpp:170] Top shape: 96 64 28 28 (4816896)
I1015 04:13:10.023939   246 layer_factory.hpp:74] Creating layer inception_3a/relu_3x3_reduce
I1015 04:13:10.023952   246 net.cpp:99] Creating Layer inception_3a/relu_3x3_reduce
I1015 04:13:10.023959   246 net.cpp:479] inception_3a/relu_3x3_reduce <- inception_3a/3x3_reduce_bn
I1015 04:13:10.023975   246 net.cpp:424] inception_3a/relu_3x3_reduce -> inception_3a/3x3_reduce_bn (in-place)
I1015 04:13:10.023985   246 net.cpp:163] Setting up inception_3a/relu_3x3_reduce
I1015 04:13:10.025308   246 net.cpp:170] Top shape: 96 64 28 28 (4816896)
I1015 04:13:10.025326   246 layer_factory.hpp:74] Creating layer inception_3a/3x3
I1015 04:13:10.025342   246 net.cpp:99] Creating Layer inception_3a/3x3
I1015 04:13:10.025352   246 net.cpp:479] inception_3a/3x3 <- inception_3a/3x3_reduce_bn
I1015 04:13:10.025367   246 net.cpp:435] inception_3a/3x3 -> inception_3a/3x3
I1015 04:13:10.025382   246 net.cpp:163] Setting up inception_3a/3x3
I1015 04:13:10.065670   246 net.cpp:170] Top shape: 96 64 28 28 (4816896)
I1015 04:13:10.065701   246 layer_factory.hpp:74] Creating layer inception_3a/3x3_bn
I1015 04:13:10.065713   246 layer_factory.cpp:192] Layer inception_3a/3x3_bn is using CUDNN engine.
I1015 04:13:10.065727   246 net.cpp:99] Creating Layer inception_3a/3x3_bn
I1015 04:13:10.065740   246 net.cpp:479] inception_3a/3x3_bn <- inception_3a/3x3
I1015 04:13:10.065757   246 net.cpp:435] inception_3a/3x3_bn -> inception_3a/3x3_bn
I1015 04:13:10.065774   246 net.cpp:163] Setting up inception_3a/3x3_bn
I1015 04:13:10.066638   246 cudnn_bn_layer.cpp:30] using cuDNN BN engine
I1015 04:13:10.066679   246 net.cpp:170] Top shape: 96 64 28 28 (4816896)
I1015 04:13:10.066710   246 layer_factory.hpp:74] Creating layer inception_3a/relu_3x3
I1015 04:13:10.066726   246 net.cpp:99] Creating Layer inception_3a/relu_3x3
I1015 04:13:10.066738   246 net.cpp:479] inception_3a/relu_3x3 <- inception_3a/3x3_bn
I1015 04:13:10.066754   246 net.cpp:424] inception_3a/relu_3x3 -> inception_3a/3x3_bn (in-place)
I1015 04:13:10.066771   246 net.cpp:163] Setting up inception_3a/relu_3x3
I1015 04:13:10.068068   246 net.cpp:170] Top shape: 96 64 28 28 (4816896)
I1015 04:13:10.068090   246 layer_factory.hpp:74] Creating layer inception_3a/double_3x3_reduce
I1015 04:13:10.068111   246 net.cpp:99] Creating Layer inception_3a/double_3x3_reduce
I1015 04:13:10.068123   246 net.cpp:479] inception_3a/double_3x3_reduce <- pool2/3x3_s2_pool2/3x3_s2_0_split_2
I1015 04:13:10.068145   246 net.cpp:435] inception_3a/double_3x3_reduce -> inception_3a/double_3x3_reduce
I1015 04:13:10.068162   246 net.cpp:163] Setting up inception_3a/double_3x3_reduce
I1015 04:13:10.108319   246 net.cpp:170] Top shape: 96 64 28 28 (4816896)
I1015 04:13:10.108355   246 layer_factory.hpp:74] Creating layer inception_3a/double_3x3_reduce_bn
I1015 04:13:10.108366   246 layer_factory.cpp:192] Layer inception_3a/double_3x3_reduce_bn is using CUDNN engine.
I1015 04:13:10.108386   246 net.cpp:99] Creating Layer inception_3a/double_3x3_reduce_bn
I1015 04:13:10.108402   246 net.cpp:479] inception_3a/double_3x3_reduce_bn <- inception_3a/double_3x3_reduce
I1015 04:13:10.108426   246 net.cpp:435] inception_3a/double_3x3_reduce_bn -> inception_3a/double_3x3_reduce_bn
I1015 04:13:10.108450   246 net.cpp:163] Setting up inception_3a/double_3x3_reduce_bn
I1015 04:13:10.109486   246 cudnn_bn_layer.cpp:30] using cuDNN BN engine
I1015 04:13:10.109534   246 net.cpp:170] Top shape: 96 64 28 28 (4816896)
I1015 04:13:10.109575   246 layer_factory.hpp:74] Creating layer inception_3a/relu_double_3x3_reduce
I1015 04:13:10.109628   246 net.cpp:99] Creating Layer inception_3a/relu_double_3x3_reduce
I1015 04:13:10.109643   246 net.cpp:479] inception_3a/relu_double_3x3_reduce <- inception_3a/double_3x3_reduce_bn
I1015 04:13:10.109663   246 net.cpp:424] inception_3a/relu_double_3x3_reduce -> inception_3a/double_3x3_reduce_bn (in-place)
I1015 04:13:10.109683   246 net.cpp:163] Setting up inception_3a/relu_double_3x3_reduce
I1015 04:13:10.113324   246 net.cpp:170] Top shape: 96 64 28 28 (4816896)
I1015 04:13:10.113355   246 layer_factory.hpp:74] Creating layer inception_3a/double_3x3_1
I1015 04:13:10.113384   246 net.cpp:99] Creating Layer inception_3a/double_3x3_1
I1015 04:13:10.113402   246 net.cpp:479] inception_3a/double_3x3_1 <- inception_3a/double_3x3_reduce_bn
I1015 04:13:10.113430   246 net.cpp:435] inception_3a/double_3x3_1 -> inception_3a/double_3x3_1
I1015 04:13:10.113451   246 net.cpp:163] Setting up inception_3a/double_3x3_1
I1015 04:13:10.183056   246 net.cpp:170] Top shape: 96 96 28 28 (7225344)
I1015 04:13:10.183097   246 layer_factory.hpp:74] Creating layer inception_3a/double_3x3_1_bn
I1015 04:13:10.183111   246 layer_factory.cpp:192] Layer inception_3a/double_3x3_1_bn is using CUDNN engine.
I1015 04:13:10.183135   246 net.cpp:99] Creating Layer inception_3a/double_3x3_1_bn
I1015 04:13:10.183154   246 net.cpp:479] inception_3a/double_3x3_1_bn <- inception_3a/double_3x3_1
I1015 04:13:10.183173   246 net.cpp:435] inception_3a/double_3x3_1_bn -> inception_3a/double_3x3_1_bn
I1015 04:13:10.183202   246 net.cpp:163] Setting up inception_3a/double_3x3_1_bn
I1015 04:13:10.192585   246 cudnn_bn_layer.cpp:30] using cuDNN BN engine
I1015 04:13:10.192646   246 net.cpp:170] Top shape: 96 96 28 28 (7225344)
I1015 04:13:10.192678   246 layer_factory.hpp:74] Creating layer inception_3a/relu_double_3x3_1
I1015 04:13:10.192700   246 net.cpp:99] Creating Layer inception_3a/relu_double_3x3_1
I1015 04:13:10.192723   246 net.cpp:479] inception_3a/relu_double_3x3_1 <- inception_3a/double_3x3_1_bn
I1015 04:13:10.192746   246 net.cpp:424] inception_3a/relu_double_3x3_1 -> inception_3a/double_3x3_1_bn (in-place)
I1015 04:13:10.192764   246 net.cpp:163] Setting up inception_3a/relu_double_3x3_1
I1015 04:13:10.194816   246 net.cpp:170] Top shape: 96 96 28 28 (7225344)
I1015 04:13:10.194847   246 layer_factory.hpp:74] Creating layer inception_3a/double_3x3_2
I1015 04:13:10.194881   246 net.cpp:99] Creating Layer inception_3a/double_3x3_2
I1015 04:13:10.194900   246 net.cpp:479] inception_3a/double_3x3_2 <- inception_3a/double_3x3_1_bn
I1015 04:13:10.194941   246 net.cpp:435] inception_3a/double_3x3_2 -> inception_3a/double_3x3_2
I1015 04:13:10.194967   246 net.cpp:163] Setting up inception_3a/double_3x3_2
I1015 04:13:10.261631   246 net.cpp:170] Top shape: 96 96 28 28 (7225344)
I1015 04:13:10.261669   246 layer_factory.hpp:74] Creating layer inception_3a/double_3x3_2_bn
I1015 04:13:10.261687   246 layer_factory.cpp:192] Layer inception_3a/double_3x3_2_bn is using CUDNN engine.
I1015 04:13:10.261718   246 net.cpp:99] Creating Layer inception_3a/double_3x3_2_bn
I1015 04:13:10.261735   246 net.cpp:479] inception_3a/double_3x3_2_bn <- inception_3a/double_3x3_2
I1015 04:13:10.261765   246 net.cpp:435] inception_3a/double_3x3_2_bn -> inception_3a/double_3x3_2_bn
I1015 04:13:10.261786   246 net.cpp:163] Setting up inception_3a/double_3x3_2_bn
I1015 04:13:10.263476   246 cudnn_bn_layer.cpp:30] using cuDNN BN engine
I1015 04:13:10.263533   246 net.cpp:170] Top shape: 96 96 28 28 (7225344)
I1015 04:13:10.263584   246 layer_factory.hpp:74] Creating layer inception_3a/relu_double_3x3_2
I1015 04:13:10.263612   246 net.cpp:99] Creating Layer inception_3a/relu_double_3x3_2
I1015 04:13:10.263629   246 net.cpp:479] inception_3a/relu_double_3x3_2 <- inception_3a/double_3x3_2_bn
I1015 04:13:10.263657   246 net.cpp:424] inception_3a/relu_double_3x3_2 -> inception_3a/double_3x3_2_bn (in-place)
I1015 04:13:10.263674   246 net.cpp:163] Setting up inception_3a/relu_double_3x3_2
I1015 04:13:10.265579   246 net.cpp:170] Top shape: 96 96 28 28 (7225344)
I1015 04:13:10.265650   246 layer_factory.hpp:74] Creating layer inception_3a/pool
I1015 04:13:10.265668   246 layer_factory.cpp:69] CUDNN does not support padding or multiple tops. Using Caffe's own pooling layer.
I1015 04:13:10.265710   246 net.cpp:99] Creating Layer inception_3a/pool
I1015 04:13:10.265730   246 net.cpp:479] inception_3a/pool <- pool2/3x3_s2_pool2/3x3_s2_0_split_3
I1015 04:13:10.265760   246 net.cpp:435] inception_3a/pool -> inception_3a/pool
I1015 04:13:10.265786   246 net.cpp:163] Setting up inception_3a/pool
I1015 04:13:10.265808   246 net.cpp:170] Top shape: 96 192 28 28 (14450688)
I1015 04:13:10.265827   246 layer_factory.hpp:74] Creating layer inception_3a/pool_proj
I1015 04:13:10.265851   246 net.cpp:99] Creating Layer inception_3a/pool_proj
I1015 04:13:10.265866   246 net.cpp:479] inception_3a/pool_proj <- inception_3a/pool
I1015 04:13:10.265898   246 net.cpp:435] inception_3a/pool_proj -> inception_3a/pool_proj
I1015 04:13:10.265936   246 net.cpp:163] Setting up inception_3a/pool_proj
I1015 04:13:10.297936   246 net.cpp:170] Top shape: 96 32 28 28 (2408448)
I1015 04:13:10.297966   246 layer_factory.hpp:74] Creating layer inception_3a/pool_proj_bn
I1015 04:13:10.297976   246 layer_factory.cpp:192] Layer inception_3a/pool_proj_bn is using CUDNN engine.
I1015 04:13:10.297991   246 net.cpp:99] Creating Layer inception_3a/pool_proj_bn
I1015 04:13:10.298002   246 net.cpp:479] inception_3a/pool_proj_bn <- inception_3a/pool_proj
I1015 04:13:10.298013   246 net.cpp:435] inception_3a/pool_proj_bn -> inception_3a/pool_proj_bn
I1015 04:13:10.298030   246 net.cpp:163] Setting up inception_3a/pool_proj_bn
I1015 04:13:10.301620   246 cudnn_bn_layer.cpp:30] using cuDNN BN engine
I1015 04:13:10.301656   246 net.cpp:170] Top shape: 96 32 28 28 (2408448)
I1015 04:13:10.301671   246 layer_factory.hpp:74] Creating layer inception_3a/relu_pool_proj
I1015 04:13:10.301678   246 net.cpp:99] Creating Layer inception_3a/relu_pool_proj
I1015 04:13:10.301687   246 net.cpp:479] inception_3a/relu_pool_proj <- inception_3a/pool_proj_bn
I1015 04:13:10.301699   246 net.cpp:424] inception_3a/relu_pool_proj -> inception_3a/pool_proj_bn (in-place)
I1015 04:13:10.301710   246 net.cpp:163] Setting up inception_3a/relu_pool_proj
I1015 04:13:10.302603   246 net.cpp:170] Top shape: 96 32 28 28 (2408448)
I1015 04:13:10.302619   246 layer_factory.hpp:74] Creating layer inception_3a/output
I1015 04:13:10.302644   246 net.cpp:99] Creating Layer inception_3a/output
I1015 04:13:10.302654   246 net.cpp:479] inception_3a/output <- inception_3a/1x1_bn
I1015 04:13:10.302661   246 net.cpp:479] inception_3a/output <- inception_3a/3x3_bn
I1015 04:13:10.302670   246 net.cpp:479] inception_3a/output <- inception_3a/double_3x3_2_bn
I1015 04:13:10.302677   246 net.cpp:479] inception_3a/output <- inception_3a/pool_proj_bn
I1015 04:13:10.302690   246 net.cpp:435] inception_3a/output -> inception_3a/output
I1015 04:13:10.302702   246 net.cpp:163] Setting up inception_3a/output
I1015 04:13:10.302718   246 net.cpp:170] Top shape: 96 256 28 28 (19267584)
I1015 04:13:10.302728   246 layer_factory.hpp:74] Creating layer inception_3a/output_inception_3a/output_0_split
I1015 04:13:10.302740   246 net.cpp:99] Creating Layer inception_3a/output_inception_3a/output_0_split
I1015 04:13:10.302748   246 net.cpp:479] inception_3a/output_inception_3a/output_0_split <- inception_3a/output
I1015 04:13:10.302759   246 net.cpp:435] inception_3a/output_inception_3a/output_0_split -> inception_3a/output_inception_3a/output_0_split_0
I1015 04:13:10.302772   246 net.cpp:435] inception_3a/output_inception_3a/output_0_split -> inception_3a/output_inception_3a/output_0_split_1
I1015 04:13:10.302793   246 net.cpp:435] inception_3a/output_inception_3a/output_0_split -> inception_3a/output_inception_3a/output_0_split_2
I1015 04:13:10.302808   246 net.cpp:435] inception_3a/output_inception_3a/output_0_split -> inception_3a/output_inception_3a/output_0_split_3
I1015 04:13:10.302816   246 net.cpp:163] Setting up inception_3a/output_inception_3a/output_0_split
I1015 04:13:10.302846   246 net.cpp:170] Top shape: 96 256 28 28 (19267584)
I1015 04:13:10.302855   246 net.cpp:170] Top shape: 96 256 28 28 (19267584)
I1015 04:13:10.302861   246 net.cpp:170] Top shape: 96 256 28 28 (19267584)
I1015 04:13:10.302872   246 net.cpp:170] Top shape: 96 256 28 28 (19267584)
I1015 04:13:10.302879   246 layer_factory.hpp:74] Creating layer inception_3b/1x1
I1015 04:13:10.302891   246 net.cpp:99] Creating Layer inception_3b/1x1
I1015 04:13:10.302898   246 net.cpp:479] inception_3b/1x1 <- inception_3a/output_inception_3a/output_0_split_0
I1015 04:13:10.302911   246 net.cpp:435] inception_3b/1x1 -> inception_3b/1x1
I1015 04:13:10.302930   246 net.cpp:163] Setting up inception_3b/1x1
I1015 04:13:10.339898   246 net.cpp:170] Top shape: 96 64 28 28 (4816896)
I1015 04:13:10.339926   246 layer_factory.hpp:74] Creating layer inception_3b/1x1_bn
I1015 04:13:10.339932   246 layer_factory.cpp:192] Layer inception_3b/1x1_bn is using CUDNN engine.
I1015 04:13:10.339947   246 net.cpp:99] Creating Layer inception_3b/1x1_bn
I1015 04:13:10.339956   246 net.cpp:479] inception_3b/1x1_bn <- inception_3b/1x1
I1015 04:13:10.339968   246 net.cpp:435] inception_3b/1x1_bn -> inception_3b/1x1_bn
I1015 04:13:10.339982   246 net.cpp:163] Setting up inception_3b/1x1_bn
I1015 04:13:10.341274   246 cudnn_bn_layer.cpp:30] using cuDNN BN engine
I1015 04:13:10.341305   246 net.cpp:170] Top shape: 96 64 28 28 (4816896)
I1015 04:13:10.341331   246 layer_factory.hpp:74] Creating layer inception_3b/relu_1x1
I1015 04:13:10.341342   246 net.cpp:99] Creating Layer inception_3b/relu_1x1
I1015 04:13:10.341348   246 net.cpp:479] inception_3b/relu_1x1 <- inception_3b/1x1_bn
I1015 04:13:10.341361   246 net.cpp:424] inception_3b/relu_1x1 -> inception_3b/1x1_bn (in-place)
I1015 04:13:10.341372   246 net.cpp:163] Setting up inception_3b/relu_1x1
I1015 04:13:10.343118   246 net.cpp:170] Top shape: 96 64 28 28 (4816896)
I1015 04:13:10.343133   246 layer_factory.hpp:74] Creating layer inception_3b/3x3_reduce
I1015 04:13:10.343148   246 net.cpp:99] Creating Layer inception_3b/3x3_reduce
I1015 04:13:10.343158   246 net.cpp:479] inception_3b/3x3_reduce <- inception_3a/output_inception_3a/output_0_split_1
I1015 04:13:10.343169   246 net.cpp:435] inception_3b/3x3_reduce -> inception_3b/3x3_reduce
I1015 04:13:10.343183   246 net.cpp:163] Setting up inception_3b/3x3_reduce
I1015 04:13:10.388478   246 net.cpp:170] Top shape: 96 64 28 28 (4816896)
I1015 04:13:10.388531   246 layer_factory.hpp:74] Creating layer inception_3b/3x3_reduce_bn
I1015 04:13:10.388545   246 layer_factory.cpp:192] Layer inception_3b/3x3_reduce_bn is using CUDNN engine.
I1015 04:13:10.388571   246 net.cpp:99] Creating Layer inception_3b/3x3_reduce_bn
I1015 04:13:10.388588   246 net.cpp:479] inception_3b/3x3_reduce_bn <- inception_3b/3x3_reduce
I1015 04:13:10.388612   246 net.cpp:435] inception_3b/3x3_reduce_bn -> inception_3b/3x3_reduce_bn
I1015 04:13:10.388638   246 net.cpp:163] Setting up inception_3b/3x3_reduce_bn
I1015 04:13:10.394193   246 cudnn_bn_layer.cpp:30] using cuDNN BN engine
I1015 04:13:10.394255   246 net.cpp:170] Top shape: 96 64 28 28 (4816896)
I1015 04:13:10.394321   246 layer_factory.hpp:74] Creating layer inception_3b/relu_3x3_reduce
I1015 04:13:10.394349   246 net.cpp:99] Creating Layer inception_3b/relu_3x3_reduce
I1015 04:13:10.394366   246 net.cpp:479] inception_3b/relu_3x3_reduce <- inception_3b/3x3_reduce_bn
I1015 04:13:10.394402   246 net.cpp:424] inception_3b/relu_3x3_reduce -> inception_3b/3x3_reduce_bn (in-place)
I1015 04:13:10.394421   246 net.cpp:163] Setting up inception_3b/relu_3x3_reduce
I1015 04:13:10.396019   246 net.cpp:170] Top shape: 96 64 28 28 (4816896)
I1015 04:13:10.396049   246 layer_factory.hpp:74] Creating layer inception_3b/3x3
I1015 04:13:10.396076   246 net.cpp:99] Creating Layer inception_3b/3x3
I1015 04:13:10.396095   246 net.cpp:479] inception_3b/3x3 <- inception_3b/3x3_reduce_bn
I1015 04:13:10.396128   246 net.cpp:435] inception_3b/3x3 -> inception_3b/3x3
I1015 04:13:10.396152   246 net.cpp:163] Setting up inception_3b/3x3
I1015 04:13:10.445148   246 net.cpp:170] Top shape: 96 96 28 28 (7225344)
I1015 04:13:10.445188   246 layer_factory.hpp:74] Creating layer inception_3b/3x3_bn
I1015 04:13:10.445204   246 layer_factory.cpp:192] Layer inception_3b/3x3_bn is using CUDNN engine.
I1015 04:13:10.445261   246 net.cpp:99] Creating Layer inception_3b/3x3_bn
I1015 04:13:10.445279   246 net.cpp:479] inception_3b/3x3_bn <- inception_3b/3x3
I1015 04:13:10.445305   246 net.cpp:435] inception_3b/3x3_bn -> inception_3b/3x3_bn
I1015 04:13:10.445327   246 net.cpp:163] Setting up inception_3b/3x3_bn
I1015 04:13:10.447039   246 cudnn_bn_layer.cpp:30] using cuDNN BN engine
I1015 04:13:10.447101   246 net.cpp:170] Top shape: 96 96 28 28 (7225344)
I1015 04:13:10.447149   246 layer_factory.hpp:74] Creating layer inception_3b/relu_3x3
I1015 04:13:10.447171   246 net.cpp:99] Creating Layer inception_3b/relu_3x3
I1015 04:13:10.447185   246 net.cpp:479] inception_3b/relu_3x3 <- inception_3b/3x3_bn
I1015 04:13:10.447209   246 net.cpp:424] inception_3b/relu_3x3 -> inception_3b/3x3_bn (in-place)
I1015 04:13:10.447232   246 net.cpp:163] Setting up inception_3b/relu_3x3
I1015 04:13:10.448921   246 net.cpp:170] Top shape: 96 96 28 28 (7225344)
I1015 04:13:10.448949   246 layer_factory.hpp:74] Creating layer inception_3b/double_3x3_reduce
I1015 04:13:10.448971   246 net.cpp:99] Creating Layer inception_3b/double_3x3_reduce
I1015 04:13:10.448987   246 net.cpp:479] inception_3b/double_3x3_reduce <- inception_3a/output_inception_3a/output_0_split_2
I1015 04:13:10.449010   246 net.cpp:435] inception_3b/double_3x3_reduce -> inception_3b/double_3x3_reduce
I1015 04:13:10.449029   246 net.cpp:163] Setting up inception_3b/double_3x3_reduce
I1015 04:13:10.489492   246 net.cpp:170] Top shape: 96 64 28 28 (4816896)
I1015 04:13:10.489526   246 layer_factory.hpp:74] Creating layer inception_3b/double_3x3_reduce_bn
I1015 04:13:10.489535   246 layer_factory.cpp:192] Layer inception_3b/double_3x3_reduce_bn is using CUDNN engine.
I1015 04:13:10.489553   246 net.cpp:99] Creating Layer inception_3b/double_3x3_reduce_bn
I1015 04:13:10.489567   246 net.cpp:479] inception_3b/double_3x3_reduce_bn <- inception_3b/double_3x3_reduce
I1015 04:13:10.489584   246 net.cpp:435] inception_3b/double_3x3_reduce_bn -> inception_3b/double_3x3_reduce_bn
I1015 04:13:10.489604   246 net.cpp:163] Setting up inception_3b/double_3x3_reduce_bn
I1015 04:13:10.494727   246 cudnn_bn_layer.cpp:30] using cuDNN BN engine
I1015 04:13:10.494771   246 net.cpp:170] Top shape: 96 64 28 28 (4816896)
I1015 04:13:10.494807   246 layer_factory.hpp:74] Creating layer inception_3b/relu_double_3x3_reduce
I1015 04:13:10.494827   246 net.cpp:99] Creating Layer inception_3b/relu_double_3x3_reduce
I1015 04:13:10.494839   246 net.cpp:479] inception_3b/relu_double_3x3_reduce <- inception_3b/double_3x3_reduce_bn
I1015 04:13:10.494855   246 net.cpp:424] inception_3b/relu_double_3x3_reduce -> inception_3b/double_3x3_reduce_bn (in-place)
I1015 04:13:10.494868   246 net.cpp:163] Setting up inception_3b/relu_double_3x3_reduce
I1015 04:13:10.496456   246 net.cpp:170] Top shape: 96 64 28 28 (4816896)
I1015 04:13:10.496479   246 layer_factory.hpp:74] Creating layer inception_3b/double_3x3_1
I1015 04:13:10.496505   246 net.cpp:99] Creating Layer inception_3b/double_3x3_1
I1015 04:13:10.496515   246 net.cpp:479] inception_3b/double_3x3_1 <- inception_3b/double_3x3_reduce_bn
I1015 04:13:10.496536   246 net.cpp:435] inception_3b/double_3x3_1 -> inception_3b/double_3x3_1
I1015 04:13:10.496554   246 net.cpp:163] Setting up inception_3b/double_3x3_1
I1015 04:13:10.543592   246 net.cpp:170] Top shape: 96 96 28 28 (7225344)
I1015 04:13:10.543627   246 layer_factory.hpp:74] Creating layer inception_3b/double_3x3_1_bn
I1015 04:13:10.543640   246 layer_factory.cpp:192] Layer inception_3b/double_3x3_1_bn is using CUDNN engine.
I1015 04:13:10.543663   246 net.cpp:99] Creating Layer inception_3b/double_3x3_1_bn
I1015 04:13:10.543678   246 net.cpp:479] inception_3b/double_3x3_1_bn <- inception_3b/double_3x3_1
I1015 04:13:10.543695   246 net.cpp:435] inception_3b/double_3x3_1_bn -> inception_3b/double_3x3_1_bn
I1015 04:13:10.543745   246 net.cpp:163] Setting up inception_3b/double_3x3_1_bn
I1015 04:13:10.545260   246 cudnn_bn_layer.cpp:30] using cuDNN BN engine
I1015 04:13:10.545305   246 net.cpp:170] Top shape: 96 96 28 28 (7225344)
I1015 04:13:10.545346   246 layer_factory.hpp:74] Creating layer inception_3b/relu_double_3x3_1
I1015 04:13:10.545369   246 net.cpp:99] Creating Layer inception_3b/relu_double_3x3_1
I1015 04:13:10.545385   246 net.cpp:479] inception_3b/relu_double_3x3_1 <- inception_3b/double_3x3_1_bn
I1015 04:13:10.545403   246 net.cpp:424] inception_3b/relu_double_3x3_1 -> inception_3b/double_3x3_1_bn (in-place)
I1015 04:13:10.545419   246 net.cpp:163] Setting up inception_3b/relu_double_3x3_1
I1015 04:13:10.546977   246 net.cpp:170] Top shape: 96 96 28 28 (7225344)
I1015 04:13:10.547001   246 layer_factory.hpp:74] Creating layer inception_3b/double_3x3_2
I1015 04:13:10.547027   246 net.cpp:99] Creating Layer inception_3b/double_3x3_2
I1015 04:13:10.547039   246 net.cpp:479] inception_3b/double_3x3_2 <- inception_3b/double_3x3_1_bn
I1015 04:13:10.547063   246 net.cpp:435] inception_3b/double_3x3_2 -> inception_3b/double_3x3_2
I1015 04:13:10.547084   246 net.cpp:163] Setting up inception_3b/double_3x3_2
I1015 04:13:10.609599   246 net.cpp:170] Top shape: 96 96 28 28 (7225344)
I1015 04:13:10.609647   246 layer_factory.hpp:74] Creating layer inception_3b/double_3x3_2_bn
I1015 04:13:10.609663   246 layer_factory.cpp:192] Layer inception_3b/double_3x3_2_bn is using CUDNN engine.
I1015 04:13:10.609695   246 net.cpp:99] Creating Layer inception_3b/double_3x3_2_bn
I1015 04:13:10.609710   246 net.cpp:479] inception_3b/double_3x3_2_bn <- inception_3b/double_3x3_2
I1015 04:13:10.609740   246 net.cpp:435] inception_3b/double_3x3_2_bn -> inception_3b/double_3x3_2_bn
I1015 04:13:10.609764   246 net.cpp:163] Setting up inception_3b/double_3x3_2_bn
I1015 04:13:10.615680   246 cudnn_bn_layer.cpp:30] using cuDNN BN engine
I1015 04:13:10.615746   246 net.cpp:170] Top shape: 96 96 28 28 (7225344)
I1015 04:13:10.615779   246 layer_factory.hpp:74] Creating layer inception_3b/relu_double_3x3_2
I1015 04:13:10.615834   246 net.cpp:99] Creating Layer inception_3b/relu_double_3x3_2
I1015 04:13:10.615852   246 net.cpp:479] inception_3b/relu_double_3x3_2 <- inception_3b/double_3x3_2_bn
I1015 04:13:10.615875   246 net.cpp:424] inception_3b/relu_double_3x3_2 -> inception_3b/double_3x3_2_bn (in-place)
I1015 04:13:10.615900   246 net.cpp:163] Setting up inception_3b/relu_double_3x3_2
I1015 04:13:10.617141   246 net.cpp:170] Top shape: 96 96 28 28 (7225344)
I1015 04:13:10.617170   246 layer_factory.hpp:74] Creating layer inception_3b/pool
I1015 04:13:10.617188   246 layer_factory.cpp:69] CUDNN does not support padding or multiple tops. Using Caffe's own pooling layer.
I1015 04:13:10.617206   246 net.cpp:99] Creating Layer inception_3b/pool
I1015 04:13:10.617226   246 net.cpp:479] inception_3b/pool <- inception_3a/output_inception_3a/output_0_split_3
I1015 04:13:10.617254   246 net.cpp:435] inception_3b/pool -> inception_3b/pool
I1015 04:13:10.617280   246 net.cpp:163] Setting up inception_3b/pool
I1015 04:13:10.617307   246 net.cpp:170] Top shape: 96 256 28 28 (19267584)
I1015 04:13:10.617318   246 layer_factory.hpp:74] Creating layer inception_3b/pool_proj
I1015 04:13:10.617350   246 net.cpp:99] Creating Layer inception_3b/pool_proj
I1015 04:13:10.617367   246 net.cpp:479] inception_3b/pool_proj <- inception_3b/pool
I1015 04:13:10.617391   246 net.cpp:435] inception_3b/pool_proj -> inception_3b/pool_proj
I1015 04:13:10.617421   246 net.cpp:163] Setting up inception_3b/pool_proj
I1015 04:13:10.658145   246 net.cpp:170] Top shape: 96 64 28 28 (4816896)
I1015 04:13:10.658171   246 layer_factory.hpp:74] Creating layer inception_3b/pool_proj_bn
I1015 04:13:10.658200   246 layer_factory.cpp:192] Layer inception_3b/pool_proj_bn is using CUDNN engine.
I1015 04:13:10.658217   246 net.cpp:99] Creating Layer inception_3b/pool_proj_bn
I1015 04:13:10.658228   246 net.cpp:479] inception_3b/pool_proj_bn <- inception_3b/pool_proj
I1015 04:13:10.658272   246 net.cpp:435] inception_3b/pool_proj_bn -> inception_3b/pool_proj_bn
I1015 04:13:10.658286   246 net.cpp:163] Setting up inception_3b/pool_proj_bn
I1015 04:13:10.660475   246 cudnn_bn_layer.cpp:30] using cuDNN BN engine
I1015 04:13:10.660514   246 net.cpp:170] Top shape: 96 64 28 28 (4816896)
I1015 04:13:10.660533   246 layer_factory.hpp:74] Creating layer inception_3b/relu_pool_proj
I1015 04:13:10.660552   246 net.cpp:99] Creating Layer inception_3b/relu_pool_proj
I1015 04:13:10.660560   246 net.cpp:479] inception_3b/relu_pool_proj <- inception_3b/pool_proj_bn
I1015 04:13:10.660580   246 net.cpp:424] inception_3b/relu_pool_proj -> inception_3b/pool_proj_bn (in-place)
I1015 04:13:10.660595   246 net.cpp:163] Setting up inception_3b/relu_pool_proj
I1015 04:13:10.661375   246 net.cpp:170] Top shape: 96 64 28 28 (4816896)
I1015 04:13:10.661392   246 layer_factory.hpp:74] Creating layer inception_3b/output
I1015 04:13:10.661402   246 net.cpp:99] Creating Layer inception_3b/output
I1015 04:13:10.661412   246 net.cpp:479] inception_3b/output <- inception_3b/1x1_bn
I1015 04:13:10.661423   246 net.cpp:479] inception_3b/output <- inception_3b/3x3_bn
I1015 04:13:10.661432   246 net.cpp:479] inception_3b/output <- inception_3b/double_3x3_2_bn
I1015 04:13:10.661444   246 net.cpp:479] inception_3b/output <- inception_3b/pool_proj_bn
I1015 04:13:10.661459   246 net.cpp:435] inception_3b/output -> inception_3b/output
I1015 04:13:10.661473   246 net.cpp:163] Setting up inception_3b/output
I1015 04:13:10.661489   246 net.cpp:170] Top shape: 96 320 28 28 (24084480)
I1015 04:13:10.661506   246 layer_factory.hpp:74] Creating layer inception_3b/output_inception_3b/output_0_split
I1015 04:13:10.661520   246 net.cpp:99] Creating Layer inception_3b/output_inception_3b/output_0_split
I1015 04:13:10.661528   246 net.cpp:479] inception_3b/output_inception_3b/output_0_split <- inception_3b/output
I1015 04:13:10.661545   246 net.cpp:435] inception_3b/output_inception_3b/output_0_split -> inception_3b/output_inception_3b/output_0_split_0
I1015 04:13:10.661558   246 net.cpp:435] inception_3b/output_inception_3b/output_0_split -> inception_3b/output_inception_3b/output_0_split_1
I1015 04:13:10.661573   246 net.cpp:435] inception_3b/output_inception_3b/output_0_split -> inception_3b/output_inception_3b/output_0_split_2
I1015 04:13:10.661589   246 net.cpp:163] Setting up inception_3b/output_inception_3b/output_0_split
I1015 04:13:10.661602   246 net.cpp:170] Top shape: 96 320 28 28 (24084480)
I1015 04:13:10.661614   246 net.cpp:170] Top shape: 96 320 28 28 (24084480)
I1015 04:13:10.661623   246 net.cpp:170] Top shape: 96 320 28 28 (24084480)
I1015 04:13:10.661631   246 layer_factory.hpp:74] Creating layer inception_3c/3x3_reduce
I1015 04:13:10.661646   246 net.cpp:99] Creating Layer inception_3c/3x3_reduce
I1015 04:13:10.661654   246 net.cpp:479] inception_3c/3x3_reduce <- inception_3b/output_inception_3b/output_0_split_0
I1015 04:13:10.661671   246 net.cpp:435] inception_3c/3x3_reduce -> inception_3c/3x3_reduce
I1015 04:13:10.661685   246 net.cpp:163] Setting up inception_3c/3x3_reduce
I1015 04:13:10.714725   246 net.cpp:170] Top shape: 96 128 28 28 (9633792)
I1015 04:13:10.714764   246 layer_factory.hpp:74] Creating layer inception_3c/3x3_reduce_bn
I1015 04:13:10.714777   246 layer_factory.cpp:192] Layer inception_3c/3x3_reduce_bn is using CUDNN engine.
I1015 04:13:10.714800   246 net.cpp:99] Creating Layer inception_3c/3x3_reduce_bn
I1015 04:13:10.714818   246 net.cpp:479] inception_3c/3x3_reduce_bn <- inception_3c/3x3_reduce
I1015 04:13:10.714835   246 net.cpp:435] inception_3c/3x3_reduce_bn -> inception_3c/3x3_reduce_bn
I1015 04:13:10.714859   246 net.cpp:163] Setting up inception_3c/3x3_reduce_bn
I1015 04:13:10.722723   246 cudnn_bn_layer.cpp:30] using cuDNN BN engine
I1015 04:13:10.722771   246 net.cpp:170] Top shape: 96 128 28 28 (9633792)
I1015 04:13:10.722807   246 layer_factory.hpp:74] Creating layer inception_3c/relu_3x3_reduce
I1015 04:13:10.722869   246 net.cpp:99] Creating Layer inception_3c/relu_3x3_reduce
I1015 04:13:10.722923   246 net.cpp:479] inception_3c/relu_3x3_reduce <- inception_3c/3x3_reduce_bn
I1015 04:13:10.722942   246 net.cpp:424] inception_3c/relu_3x3_reduce -> inception_3c/3x3_reduce_bn (in-place)
I1015 04:13:10.722959   246 net.cpp:163] Setting up inception_3c/relu_3x3_reduce
I1015 04:13:10.723855   246 net.cpp:170] Top shape: 96 128 28 28 (9633792)
I1015 04:13:10.723877   246 layer_factory.hpp:74] Creating layer inception_3c/3x3
I1015 04:13:10.723897   246 net.cpp:99] Creating Layer inception_3c/3x3
I1015 04:13:10.723909   246 net.cpp:479] inception_3c/3x3 <- inception_3c/3x3_reduce_bn
I1015 04:13:10.723943   246 net.cpp:435] inception_3c/3x3 -> inception_3c/3x3
I1015 04:13:10.723963   246 net.cpp:163] Setting up inception_3c/3x3
I1015 04:13:10.748814   246 net.cpp:170] Top shape: 96 160 14 14 (3010560)
I1015 04:13:10.748839   246 layer_factory.hpp:74] Creating layer inception_3c/3x3_bn
I1015 04:13:10.748847   246 layer_factory.cpp:192] Layer inception_3c/3x3_bn is using CUDNN engine.
I1015 04:13:10.748865   246 net.cpp:99] Creating Layer inception_3c/3x3_bn
I1015 04:13:10.748876   246 net.cpp:479] inception_3c/3x3_bn <- inception_3c/3x3
I1015 04:13:10.748909   246 net.cpp:435] inception_3c/3x3_bn -> inception_3c/3x3_bn
I1015 04:13:10.748939   246 net.cpp:163] Setting up inception_3c/3x3_bn
I1015 04:13:10.750809   246 cudnn_bn_layer.cpp:30] using cuDNN BN engine
I1015 04:13:10.750854   246 net.cpp:170] Top shape: 96 160 14 14 (3010560)
I1015 04:13:10.750891   246 layer_factory.hpp:74] Creating layer inception_3c/relu_3x3
I1015 04:13:10.750927   246 net.cpp:99] Creating Layer inception_3c/relu_3x3
I1015 04:13:10.750946   246 net.cpp:479] inception_3c/relu_3x3 <- inception_3c/3x3_bn
I1015 04:13:10.750962   246 net.cpp:424] inception_3c/relu_3x3 -> inception_3c/3x3_bn (in-place)
I1015 04:13:10.750980   246 net.cpp:163] Setting up inception_3c/relu_3x3
I1015 04:13:10.752033   246 net.cpp:170] Top shape: 96 160 14 14 (3010560)
I1015 04:13:10.752056   246 layer_factory.hpp:74] Creating layer inception_3c/double_3x3_reduce
I1015 04:13:10.752079   246 net.cpp:99] Creating Layer inception_3c/double_3x3_reduce
I1015 04:13:10.752091   246 net.cpp:479] inception_3c/double_3x3_reduce <- inception_3b/output_inception_3b/output_0_split_1
I1015 04:13:10.752117   246 net.cpp:435] inception_3c/double_3x3_reduce -> inception_3c/double_3x3_reduce
I1015 04:13:10.752142   246 net.cpp:163] Setting up inception_3c/double_3x3_reduce
I1015 04:13:10.800544   246 net.cpp:170] Top shape: 96 64 28 28 (4816896)
I1015 04:13:10.800580   246 layer_factory.hpp:74] Creating layer inception_3c/double_3x3_reduce_bn
I1015 04:13:10.800591   246 layer_factory.cpp:192] Layer inception_3c/double_3x3_reduce_bn is using CUDNN engine.
I1015 04:13:10.800612   246 net.cpp:99] Creating Layer inception_3c/double_3x3_reduce_bn
I1015 04:13:10.800629   246 net.cpp:479] inception_3c/double_3x3_reduce_bn <- inception_3c/double_3x3_reduce
I1015 04:13:10.800650   246 net.cpp:435] inception_3c/double_3x3_reduce_bn -> inception_3c/double_3x3_reduce_bn
I1015 04:13:10.800675   246 net.cpp:163] Setting up inception_3c/double_3x3_reduce_bn
I1015 04:13:10.801721   246 cudnn_bn_layer.cpp:30] using cuDNN BN engine
I1015 04:13:10.801766   246 net.cpp:170] Top shape: 96 64 28 28 (4816896)
I1015 04:13:10.801817   246 layer_factory.hpp:74] Creating layer inception_3c/relu_double_3x3_reduce
I1015 04:13:10.801838   246 net.cpp:99] Creating Layer inception_3c/relu_double_3x3_reduce
I1015 04:13:10.801853   246 net.cpp:479] inception_3c/relu_double_3x3_reduce <- inception_3c/double_3x3_reduce_bn
I1015 04:13:10.801867   246 net.cpp:424] inception_3c/relu_double_3x3_reduce -> inception_3c/double_3x3_reduce_bn (in-place)
I1015 04:13:10.801887   246 net.cpp:163] Setting up inception_3c/relu_double_3x3_reduce
I1015 04:13:10.807273   246 net.cpp:170] Top shape: 96 64 28 28 (4816896)
I1015 04:13:10.807301   246 layer_factory.hpp:74] Creating layer inception_3c/double_3x3_1
I1015 04:13:10.807324   246 net.cpp:99] Creating Layer inception_3c/double_3x3_1
I1015 04:13:10.807364   246 net.cpp:479] inception_3c/double_3x3_1 <- inception_3c/double_3x3_reduce_bn
I1015 04:13:10.807389   246 net.cpp:435] inception_3c/double_3x3_1 -> inception_3c/double_3x3_1
I1015 04:13:10.807410   246 net.cpp:163] Setting up inception_3c/double_3x3_1
I1015 04:13:10.856799   246 net.cpp:170] Top shape: 96 96 28 28 (7225344)
I1015 04:13:10.856833   246 layer_factory.hpp:74] Creating layer inception_3c/double_3x3_1_bn
I1015 04:13:10.856844   246 layer_factory.cpp:192] Layer inception_3c/double_3x3_1_bn is using CUDNN engine.
I1015 04:13:10.856869   246 net.cpp:99] Creating Layer inception_3c/double_3x3_1_bn
I1015 04:13:10.856884   246 net.cpp:479] inception_3c/double_3x3_1_bn <- inception_3c/double_3x3_1
I1015 04:13:10.856907   246 net.cpp:435] inception_3c/double_3x3_1_bn -> inception_3c/double_3x3_1_bn
I1015 04:13:10.856945   246 net.cpp:163] Setting up inception_3c/double_3x3_1_bn
I1015 04:13:10.858140   246 cudnn_bn_layer.cpp:30] using cuDNN BN engine
I1015 04:13:10.858189   246 net.cpp:170] Top shape: 96 96 28 28 (7225344)
I1015 04:13:10.858245   246 layer_factory.hpp:74] Creating layer inception_3c/relu_double_3x3_1
I1015 04:13:10.858265   246 net.cpp:99] Creating Layer inception_3c/relu_double_3x3_1
I1015 04:13:10.858278   246 net.cpp:479] inception_3c/relu_double_3x3_1 <- inception_3c/double_3x3_1_bn
I1015 04:13:10.858305   246 net.cpp:424] inception_3c/relu_double_3x3_1 -> inception_3c/double_3x3_1_bn (in-place)
I1015 04:13:10.858325   246 net.cpp:163] Setting up inception_3c/relu_double_3x3_1
I1015 04:13:10.859953   246 net.cpp:170] Top shape: 96 96 28 28 (7225344)
I1015 04:13:10.859985   246 layer_factory.hpp:74] Creating layer inception_3c/double_3x3_2
I1015 04:13:10.860013   246 net.cpp:99] Creating Layer inception_3c/double_3x3_2
I1015 04:13:10.860028   246 net.cpp:479] inception_3c/double_3x3_2 <- inception_3c/double_3x3_1_bn
I1015 04:13:10.860056   246 net.cpp:435] inception_3c/double_3x3_2 -> inception_3c/double_3x3_2
I1015 04:13:10.860080   246 net.cpp:163] Setting up inception_3c/double_3x3_2
I1015 04:13:10.877614   246 net.cpp:170] Top shape: 96 96 14 14 (1806336)
I1015 04:13:10.877640   246 layer_factory.hpp:74] Creating layer inception_3c/double_3x3_2_bn
I1015 04:13:10.877650   246 layer_factory.cpp:192] Layer inception_3c/double_3x3_2_bn is using CUDNN engine.
I1015 04:13:10.877667   246 net.cpp:99] Creating Layer inception_3c/double_3x3_2_bn
I1015 04:13:10.877679   246 net.cpp:479] inception_3c/double_3x3_2_bn <- inception_3c/double_3x3_2
I1015 04:13:10.877691   246 net.cpp:435] inception_3c/double_3x3_2_bn -> inception_3c/double_3x3_2_bn
I1015 04:13:10.877708   246 net.cpp:163] Setting up inception_3c/double_3x3_2_bn
I1015 04:13:10.878489   246 cudnn_bn_layer.cpp:30] using cuDNN BN engine
I1015 04:13:10.878523   246 net.cpp:170] Top shape: 96 96 14 14 (1806336)
I1015 04:13:10.878566   246 layer_factory.hpp:74] Creating layer inception_3c/relu_double_3x3_2
I1015 04:13:10.878618   246 net.cpp:99] Creating Layer inception_3c/relu_double_3x3_2
I1015 04:13:10.878626   246 net.cpp:479] inception_3c/relu_double_3x3_2 <- inception_3c/double_3x3_2_bn
I1015 04:13:10.878645   246 net.cpp:424] inception_3c/relu_double_3x3_2 -> inception_3c/double_3x3_2_bn (in-place)
I1015 04:13:10.878657   246 net.cpp:163] Setting up inception_3c/relu_double_3x3_2
I1015 04:13:10.881871   246 net.cpp:170] Top shape: 96 96 14 14 (1806336)
I1015 04:13:10.881894   246 layer_factory.hpp:74] Creating layer inception_3c/pool
I1015 04:13:10.881919   246 net.cpp:99] Creating Layer inception_3c/pool
I1015 04:13:10.881933   246 net.cpp:479] inception_3c/pool <- inception_3b/output_inception_3b/output_0_split_2
I1015 04:13:10.881951   246 net.cpp:435] inception_3c/pool -> inception_3c/pool
I1015 04:13:10.881995   246 net.cpp:163] Setting up inception_3c/pool
I1015 04:13:10.883111   246 net.cpp:170] Top shape: 96 320 14 14 (6021120)
I1015 04:13:10.883134   246 layer_factory.hpp:74] Creating layer inception_3c/output
I1015 04:13:10.883148   246 net.cpp:99] Creating Layer inception_3c/output
I1015 04:13:10.883162   246 net.cpp:479] inception_3c/output <- inception_3c/3x3_bn
I1015 04:13:10.883199   246 net.cpp:479] inception_3c/output <- inception_3c/double_3x3_2_bn
I1015 04:13:10.883208   246 net.cpp:479] inception_3c/output <- inception_3c/pool
I1015 04:13:10.883224   246 net.cpp:435] inception_3c/output -> inception_3c/output
I1015 04:13:10.883239   246 net.cpp:163] Setting up inception_3c/output
I1015 04:13:10.883255   246 net.cpp:170] Top shape: 96 576 14 14 (10838016)
I1015 04:13:10.883265   246 layer_factory.hpp:74] Creating layer inception_3c/output_inception_3c/output_0_split
I1015 04:13:10.883292   246 net.cpp:99] Creating Layer inception_3c/output_inception_3c/output_0_split
I1015 04:13:10.883306   246 net.cpp:479] inception_3c/output_inception_3c/output_0_split <- inception_3c/output
I1015 04:13:10.883317   246 net.cpp:435] inception_3c/output_inception_3c/output_0_split -> inception_3c/output_inception_3c/output_0_split_0
I1015 04:13:10.883333   246 net.cpp:435] inception_3c/output_inception_3c/output_0_split -> inception_3c/output_inception_3c/output_0_split_1
I1015 04:13:10.883352   246 net.cpp:435] inception_3c/output_inception_3c/output_0_split -> inception_3c/output_inception_3c/output_0_split_2
I1015 04:13:10.883369   246 net.cpp:435] inception_3c/output_inception_3c/output_0_split -> inception_3c/output_inception_3c/output_0_split_3
I1015 04:13:10.883383   246 net.cpp:163] Setting up inception_3c/output_inception_3c/output_0_split
I1015 04:13:10.883396   246 net.cpp:170] Top shape: 96 576 14 14 (10838016)
I1015 04:13:10.883409   246 net.cpp:170] Top shape: 96 576 14 14 (10838016)
I1015 04:13:10.883420   246 net.cpp:170] Top shape: 96 576 14 14 (10838016)
I1015 04:13:10.883430   246 net.cpp:170] Top shape: 96 576 14 14 (10838016)
I1015 04:13:10.883441   246 layer_factory.hpp:74] Creating layer inception_4a/1x1
I1015 04:13:10.883460   246 net.cpp:99] Creating Layer inception_4a/1x1
I1015 04:13:10.883471   246 net.cpp:479] inception_4a/1x1 <- inception_3c/output_inception_3c/output_0_split_0
I1015 04:13:10.883487   246 net.cpp:435] inception_4a/1x1 -> inception_4a/1x1
I1015 04:13:10.883507   246 net.cpp:163] Setting up inception_4a/1x1
I1015 04:13:10.928766   246 net.cpp:170] Top shape: 96 224 14 14 (4214784)
I1015 04:13:10.928795   246 layer_factory.hpp:74] Creating layer inception_4a/1x1_bn
I1015 04:13:10.928808   246 layer_factory.cpp:192] Layer inception_4a/1x1_bn is using CUDNN engine.
I1015 04:13:10.928826   246 net.cpp:99] Creating Layer inception_4a/1x1_bn
I1015 04:13:10.928836   246 net.cpp:479] inception_4a/1x1_bn <- inception_4a/1x1
I1015 04:13:10.928856   246 net.cpp:435] inception_4a/1x1_bn -> inception_4a/1x1_bn
I1015 04:13:10.928874   246 net.cpp:163] Setting up inception_4a/1x1_bn
I1015 04:13:10.931443   246 cudnn_bn_layer.cpp:30] using cuDNN BN engine
I1015 04:13:10.931481   246 net.cpp:170] Top shape: 96 224 14 14 (4214784)
I1015 04:13:10.931502   246 layer_factory.hpp:74] Creating layer inception_4a/relu_1x1
I1015 04:13:10.931537   246 net.cpp:99] Creating Layer inception_4a/relu_1x1
I1015 04:13:10.931552   246 net.cpp:479] inception_4a/relu_1x1 <- inception_4a/1x1_bn
I1015 04:13:10.931571   246 net.cpp:424] inception_4a/relu_1x1 -> inception_4a/1x1_bn (in-place)
I1015 04:13:10.931587   246 net.cpp:163] Setting up inception_4a/relu_1x1
I1015 04:13:10.933393   246 net.cpp:170] Top shape: 96 224 14 14 (4214784)
I1015 04:13:10.933413   246 layer_factory.hpp:74] Creating layer inception_4a/3x3_reduce
I1015 04:13:10.933432   246 net.cpp:99] Creating Layer inception_4a/3x3_reduce
I1015 04:13:10.933445   246 net.cpp:479] inception_4a/3x3_reduce <- inception_3c/output_inception_3c/output_0_split_1
I1015 04:13:10.933465   246 net.cpp:435] inception_4a/3x3_reduce -> inception_4a/3x3_reduce
I1015 04:13:10.933481   246 net.cpp:163] Setting up inception_4a/3x3_reduce
I1015 04:13:10.964287   246 net.cpp:170] Top shape: 96 64 14 14 (1204224)
I1015 04:13:10.964309   246 layer_factory.hpp:74] Creating layer inception_4a/3x3_reduce_bn
I1015 04:13:10.964316   246 layer_factory.cpp:192] Layer inception_4a/3x3_reduce_bn is using CUDNN engine.
I1015 04:13:10.964345   246 net.cpp:99] Creating Layer inception_4a/3x3_reduce_bn
I1015 04:13:10.964354   246 net.cpp:479] inception_4a/3x3_reduce_bn <- inception_4a/3x3_reduce
I1015 04:13:10.964367   246 net.cpp:435] inception_4a/3x3_reduce_bn -> inception_4a/3x3_reduce_bn
I1015 04:13:10.964381   246 net.cpp:163] Setting up inception_4a/3x3_reduce_bn
I1015 04:13:10.967505   246 cudnn_bn_layer.cpp:30] using cuDNN BN engine
I1015 04:13:10.967533   246 net.cpp:170] Top shape: 96 64 14 14 (1204224)
I1015 04:13:10.967546   246 layer_factory.hpp:74] Creating layer inception_4a/relu_3x3_reduce
I1015 04:13:10.967572   246 net.cpp:99] Creating Layer inception_4a/relu_3x3_reduce
I1015 04:13:10.967581   246 net.cpp:479] inception_4a/relu_3x3_reduce <- inception_4a/3x3_reduce_bn
I1015 04:13:10.967592   246 net.cpp:424] inception_4a/relu_3x3_reduce -> inception_4a/3x3_reduce_bn (in-place)
I1015 04:13:10.967600   246 net.cpp:163] Setting up inception_4a/relu_3x3_reduce
I1015 04:13:10.968513   246 net.cpp:170] Top shape: 96 64 14 14 (1204224)
I1015 04:13:10.968529   246 layer_factory.hpp:74] Creating layer inception_4a/3x3
I1015 04:13:10.968542   246 net.cpp:99] Creating Layer inception_4a/3x3
I1015 04:13:10.968551   246 net.cpp:479] inception_4a/3x3 <- inception_4a/3x3_reduce_bn
I1015 04:13:10.968566   246 net.cpp:435] inception_4a/3x3 -> inception_4a/3x3
I1015 04:13:10.968578   246 net.cpp:163] Setting up inception_4a/3x3
I1015 04:13:10.991398   246 net.cpp:170] Top shape: 96 96 14 14 (1806336)
I1015 04:13:10.991415   246 layer_factory.hpp:74] Creating layer inception_4a/3x3_bn
I1015 04:13:10.991420   246 layer_factory.cpp:192] Layer inception_4a/3x3_bn is using CUDNN engine.
I1015 04:13:10.991434   246 net.cpp:99] Creating Layer inception_4a/3x3_bn
I1015 04:13:10.991441   246 net.cpp:479] inception_4a/3x3_bn <- inception_4a/3x3
I1015 04:13:10.991451   246 net.cpp:435] inception_4a/3x3_bn -> inception_4a/3x3_bn
I1015 04:13:10.991461   246 net.cpp:163] Setting up inception_4a/3x3_bn
I1015 04:13:10.992202   246 cudnn_bn_layer.cpp:30] using cuDNN BN engine
I1015 04:13:10.992224   246 net.cpp:170] Top shape: 96 96 14 14 (1806336)
I1015 04:13:10.992235   246 layer_factory.hpp:74] Creating layer inception_4a/relu_3x3
I1015 04:13:10.992254   246 net.cpp:99] Creating Layer inception_4a/relu_3x3
I1015 04:13:10.992261   246 net.cpp:479] inception_4a/relu_3x3 <- inception_4a/3x3_bn
I1015 04:13:10.992272   246 net.cpp:424] inception_4a/relu_3x3 -> inception_4a/3x3_bn (in-place)
I1015 04:13:10.992280   246 net.cpp:163] Setting up inception_4a/relu_3x3
I1015 04:13:10.993031   246 net.cpp:170] Top shape: 96 96 14 14 (1806336)
I1015 04:13:10.993044   246 layer_factory.hpp:74] Creating layer inception_4a/double_3x3_reduce
I1015 04:13:10.993057   246 net.cpp:99] Creating Layer inception_4a/double_3x3_reduce
I1015 04:13:10.993064   246 net.cpp:479] inception_4a/double_3x3_reduce <- inception_3c/output_inception_3c/output_0_split_2
I1015 04:13:10.993073   246 net.cpp:435] inception_4a/double_3x3_reduce -> inception_4a/double_3x3_reduce
I1015 04:13:10.993084   246 net.cpp:163] Setting up inception_4a/double_3x3_reduce
I1015 04:13:11.026041   246 net.cpp:170] Top shape: 96 96 14 14 (1806336)
I1015 04:13:11.026064   246 layer_factory.hpp:74] Creating layer inception_4a/double_3x3_reduce_bn
I1015 04:13:11.026072   246 layer_factory.cpp:192] Layer inception_4a/double_3x3_reduce_bn is using CUDNN engine.
I1015 04:13:11.026087   246 net.cpp:99] Creating Layer inception_4a/double_3x3_reduce_bn
I1015 04:13:11.026098   246 net.cpp:479] inception_4a/double_3x3_reduce_bn <- inception_4a/double_3x3_reduce
I1015 04:13:11.026108   246 net.cpp:435] inception_4a/double_3x3_reduce_bn -> inception_4a/double_3x3_reduce_bn
I1015 04:13:11.026124   246 net.cpp:163] Setting up inception_4a/double_3x3_reduce_bn
I1015 04:13:11.029451   246 cudnn_bn_layer.cpp:30] using cuDNN BN engine
I1015 04:13:11.029484   246 net.cpp:170] Top shape: 96 96 14 14 (1806336)
I1015 04:13:11.029496   246 layer_factory.hpp:74] Creating layer inception_4a/relu_double_3x3_reduce
I1015 04:13:11.029546   246 net.cpp:99] Creating Layer inception_4a/relu_double_3x3_reduce
I1015 04:13:11.029557   246 net.cpp:479] inception_4a/relu_double_3x3_reduce <- inception_4a/double_3x3_reduce_bn
I1015 04:13:11.029570   246 net.cpp:424] inception_4a/relu_double_3x3_reduce -> inception_4a/double_3x3_reduce_bn (in-place)
I1015 04:13:11.029582   246 net.cpp:163] Setting up inception_4a/relu_double_3x3_reduce
I1015 04:13:11.030601   246 net.cpp:170] Top shape: 96 96 14 14 (1806336)
I1015 04:13:11.030620   246 layer_factory.hpp:74] Creating layer inception_4a/double_3x3_1
I1015 04:13:11.030637   246 net.cpp:99] Creating Layer inception_4a/double_3x3_1
I1015 04:13:11.030647   246 net.cpp:479] inception_4a/double_3x3_1 <- inception_4a/double_3x3_reduce_bn
I1015 04:13:11.030664   246 net.cpp:435] inception_4a/double_3x3_1 -> inception_4a/double_3x3_1
I1015 04:13:11.030678   246 net.cpp:163] Setting up inception_4a/double_3x3_1
I1015 04:13:11.063138   246 net.cpp:170] Top shape: 96 128 14 14 (2408448)
I1015 04:13:11.063158   246 layer_factory.hpp:74] Creating layer inception_4a/double_3x3_1_bn
I1015 04:13:11.063165   246 layer_factory.cpp:192] Layer inception_4a/double_3x3_1_bn is using CUDNN engine.
I1015 04:13:11.063177   246 net.cpp:99] Creating Layer inception_4a/double_3x3_1_bn
I1015 04:13:11.063186   246 net.cpp:479] inception_4a/double_3x3_1_bn <- inception_4a/double_3x3_1
I1015 04:13:11.063196   246 net.cpp:435] inception_4a/double_3x3_1_bn -> inception_4a/double_3x3_1_bn
I1015 04:13:11.063207   246 net.cpp:163] Setting up inception_4a/double_3x3_1_bn
I1015 04:13:11.064344   246 cudnn_bn_layer.cpp:30] using cuDNN BN engine
I1015 04:13:11.064369   246 net.cpp:170] Top shape: 96 128 14 14 (2408448)
I1015 04:13:11.064383   246 layer_factory.hpp:74] Creating layer inception_4a/relu_double_3x3_1
I1015 04:13:11.064410   246 net.cpp:99] Creating Layer inception_4a/relu_double_3x3_1
I1015 04:13:11.064420   246 net.cpp:479] inception_4a/relu_double_3x3_1 <- inception_4a/double_3x3_1_bn
I1015 04:13:11.064430   246 net.cpp:424] inception_4a/relu_double_3x3_1 -> inception_4a/double_3x3_1_bn (in-place)
I1015 04:13:11.064440   246 net.cpp:163] Setting up inception_4a/relu_double_3x3_1
I1015 04:13:11.065490   246 net.cpp:170] Top shape: 96 128 14 14 (2408448)
I1015 04:13:11.065505   246 layer_factory.hpp:74] Creating layer inception_4a/double_3x3_2
I1015 04:13:11.065519   246 net.cpp:99] Creating Layer inception_4a/double_3x3_2
I1015 04:13:11.065528   246 net.cpp:479] inception_4a/double_3x3_2 <- inception_4a/double_3x3_1_bn
I1015 04:13:11.065543   246 net.cpp:435] inception_4a/double_3x3_2 -> inception_4a/double_3x3_2
I1015 04:13:11.065555   246 net.cpp:163] Setting up inception_4a/double_3x3_2
I1015 04:13:11.111073   246 net.cpp:170] Top shape: 96 128 14 14 (2408448)
I1015 04:13:11.111106   246 layer_factory.hpp:74] Creating layer inception_4a/double_3x3_2_bn
I1015 04:13:11.111120   246 layer_factory.cpp:192] Layer inception_4a/double_3x3_2_bn is using CUDNN engine.
I1015 04:13:11.111135   246 net.cpp:99] Creating Layer inception_4a/double_3x3_2_bn
I1015 04:13:11.111148   246 net.cpp:479] inception_4a/double_3x3_2_bn <- inception_4a/double_3x3_2
I1015 04:13:11.111171   246 net.cpp:435] inception_4a/double_3x3_2_bn -> inception_4a/double_3x3_2_bn
I1015 04:13:11.111188   246 net.cpp:163] Setting up inception_4a/double_3x3_2_bn
I1015 04:13:11.119320   246 cudnn_bn_layer.cpp:30] using cuDNN BN engine
I1015 04:13:11.119374   246 net.cpp:170] Top shape: 96 128 14 14 (2408448)
I1015 04:13:11.119395   246 layer_factory.hpp:74] Creating layer inception_4a/relu_double_3x3_2
I1015 04:13:11.119446   246 net.cpp:99] Creating Layer inception_4a/relu_double_3x3_2
I1015 04:13:11.119462   246 net.cpp:479] inception_4a/relu_double_3x3_2 <- inception_4a/double_3x3_2_bn
I1015 04:13:11.119488   246 net.cpp:424] inception_4a/relu_double_3x3_2 -> inception_4a/double_3x3_2_bn (in-place)
I1015 04:13:11.119508   246 net.cpp:163] Setting up inception_4a/relu_double_3x3_2
I1015 04:13:11.120723   246 net.cpp:170] Top shape: 96 128 14 14 (2408448)
I1015 04:13:11.120752   246 layer_factory.hpp:74] Creating layer inception_4a/pool
I1015 04:13:11.120805   246 layer_factory.cpp:69] CUDNN does not support padding or multiple tops. Using Caffe's own pooling layer.
I1015 04:13:11.120842   246 net.cpp:99] Creating Layer inception_4a/pool
I1015 04:13:11.120862   246 net.cpp:479] inception_4a/pool <- inception_3c/output_inception_3c/output_0_split_3
I1015 04:13:11.120891   246 net.cpp:435] inception_4a/pool -> inception_4a/pool
I1015 04:13:11.120929   246 net.cpp:163] Setting up inception_4a/pool
I1015 04:13:11.120957   246 net.cpp:170] Top shape: 96 576 14 14 (10838016)
I1015 04:13:11.120975   246 layer_factory.hpp:74] Creating layer inception_4a/pool_proj
I1015 04:13:11.120998   246 net.cpp:99] Creating Layer inception_4a/pool_proj
I1015 04:13:11.121018   246 net.cpp:479] inception_4a/pool_proj <- inception_4a/pool
I1015 04:13:11.121042   246 net.cpp:435] inception_4a/pool_proj -> inception_4a/pool_proj
I1015 04:13:11.121071   246 net.cpp:163] Setting up inception_4a/pool_proj
I1015 04:13:11.179219   246 net.cpp:170] Top shape: 96 128 14 14 (2408448)
I1015 04:13:11.179255   246 layer_factory.hpp:74] Creating layer inception_4a/pool_proj_bn
I1015 04:13:11.179314   246 layer_factory.cpp:192] Layer inception_4a/pool_proj_bn is using CUDNN engine.
I1015 04:13:11.179338   246 net.cpp:99] Creating Layer inception_4a/pool_proj_bn
I1015 04:13:11.179355   246 net.cpp:479] inception_4a/pool_proj_bn <- inception_4a/pool_proj
I1015 04:13:11.179384   246 net.cpp:435] inception_4a/pool_proj_bn -> inception_4a/pool_proj_bn
I1015 04:13:11.179406   246 net.cpp:163] Setting up inception_4a/pool_proj_bn
I1015 04:13:11.182646   246 cudnn_bn_layer.cpp:30] using cuDNN BN engine
I1015 04:13:11.182704   246 net.cpp:170] Top shape: 96 128 14 14 (2408448)
I1015 04:13:11.182739   246 layer_factory.hpp:74] Creating layer inception_4a/relu_pool_proj
I1015 04:13:11.182761   246 net.cpp:99] Creating Layer inception_4a/relu_pool_proj
I1015 04:13:11.182780   246 net.cpp:479] inception_4a/relu_pool_proj <- inception_4a/pool_proj_bn
I1015 04:13:11.182804   246 net.cpp:424] inception_4a/relu_pool_proj -> inception_4a/pool_proj_bn (in-place)
I1015 04:13:11.182830   246 net.cpp:163] Setting up inception_4a/relu_pool_proj
I1015 04:13:11.184077   246 net.cpp:170] Top shape: 96 128 14 14 (2408448)
I1015 04:13:11.184104   246 layer_factory.hpp:74] Creating layer inception_4a/output
I1015 04:13:11.184135   246 net.cpp:99] Creating Layer inception_4a/output
I1015 04:13:11.184152   246 net.cpp:479] inception_4a/output <- inception_4a/1x1_bn
I1015 04:13:11.184175   246 net.cpp:479] inception_4a/output <- inception_4a/3x3_bn
I1015 04:13:11.184188   246 net.cpp:479] inception_4a/output <- inception_4a/double_3x3_2_bn
I1015 04:13:11.184206   246 net.cpp:479] inception_4a/output <- inception_4a/pool_proj_bn
I1015 04:13:11.184229   246 net.cpp:435] inception_4a/output -> inception_4a/output
I1015 04:13:11.184249   246 net.cpp:163] Setting up inception_4a/output
I1015 04:13:11.184276   246 net.cpp:170] Top shape: 96 576 14 14 (10838016)
I1015 04:13:11.184291   246 layer_factory.hpp:74] Creating layer inception_4a/output_inception_4a/output_0_split
I1015 04:13:11.184347   246 net.cpp:99] Creating Layer inception_4a/output_inception_4a/output_0_split
I1015 04:13:11.184365   246 net.cpp:479] inception_4a/output_inception_4a/output_0_split <- inception_4a/output
I1015 04:13:11.184391   246 net.cpp:435] inception_4a/output_inception_4a/output_0_split -> inception_4a/output_inception_4a/output_0_split_0
I1015 04:13:11.184417   246 net.cpp:435] inception_4a/output_inception_4a/output_0_split -> inception_4a/output_inception_4a/output_0_split_1
I1015 04:13:11.184442   246 net.cpp:435] inception_4a/output_inception_4a/output_0_split -> inception_4a/output_inception_4a/output_0_split_2
I1015 04:13:11.184471   246 net.cpp:435] inception_4a/output_inception_4a/output_0_split -> inception_4a/output_inception_4a/output_0_split_3
I1015 04:13:11.184490   246 net.cpp:163] Setting up inception_4a/output_inception_4a/output_0_split
I1015 04:13:11.184515   246 net.cpp:170] Top shape: 96 576 14 14 (10838016)
I1015 04:13:11.184562   246 net.cpp:170] Top shape: 96 576 14 14 (10838016)
I1015 04:13:11.184584   246 net.cpp:170] Top shape: 96 576 14 14 (10838016)
I1015 04:13:11.184604   246 net.cpp:170] Top shape: 96 576 14 14 (10838016)
I1015 04:13:11.184617   246 layer_factory.hpp:74] Creating layer inception_4b/1x1
I1015 04:13:11.184646   246 net.cpp:99] Creating Layer inception_4b/1x1
I1015 04:13:11.184665   246 net.cpp:479] inception_4b/1x1 <- inception_4a/output_inception_4a/output_0_split_0
I1015 04:13:11.184696   246 net.cpp:435] inception_4b/1x1 -> inception_4b/1x1
I1015 04:13:11.184721   246 net.cpp:163] Setting up inception_4b/1x1
I1015 04:13:11.235530   246 net.cpp:170] Top shape: 96 192 14 14 (3612672)
I1015 04:13:11.235572   246 layer_factory.hpp:74] Creating layer inception_4b/1x1_bn
I1015 04:13:11.235589   246 layer_factory.cpp:192] Layer inception_4b/1x1_bn is using CUDNN engine.
I1015 04:13:11.235615   246 net.cpp:99] Creating Layer inception_4b/1x1_bn
I1015 04:13:11.235635   246 net.cpp:479] inception_4b/1x1_bn <- inception_4b/1x1
I1015 04:13:11.235659   246 net.cpp:435] inception_4b/1x1_bn -> inception_4b/1x1_bn
I1015 04:13:11.235685   246 net.cpp:163] Setting up inception_4b/1x1_bn
I1015 04:13:11.243806   246 cudnn_bn_layer.cpp:30] using cuDNN BN engine
I1015 04:13:11.243860   246 net.cpp:170] Top shape: 96 192 14 14 (3612672)
I1015 04:13:11.243891   246 layer_factory.hpp:74] Creating layer inception_4b/relu_1x1
I1015 04:13:11.243943   246 net.cpp:99] Creating Layer inception_4b/relu_1x1
I1015 04:13:11.243964   246 net.cpp:479] inception_4b/relu_1x1 <- inception_4b/1x1_bn
I1015 04:13:11.243991   246 net.cpp:424] inception_4b/relu_1x1 -> inception_4b/1x1_bn (in-place)
I1015 04:13:11.244014   246 net.cpp:163] Setting up inception_4b/relu_1x1
I1015 04:13:11.245051   246 net.cpp:170] Top shape: 96 192 14 14 (3612672)
I1015 04:13:11.245070   246 layer_factory.hpp:74] Creating layer inception_4b/3x3_reduce
I1015 04:13:11.245090   246 net.cpp:99] Creating Layer inception_4b/3x3_reduce
I1015 04:13:11.245102   246 net.cpp:479] inception_4b/3x3_reduce <- inception_4a/output_inception_4a/output_0_split_1
I1015 04:13:11.245123   246 net.cpp:435] inception_4b/3x3_reduce -> inception_4b/3x3_reduce
I1015 04:13:11.245141   246 net.cpp:163] Setting up inception_4b/3x3_reduce
I1015 04:13:11.275601   246 net.cpp:170] Top shape: 96 96 14 14 (1806336)
I1015 04:13:11.275626   246 layer_factory.hpp:74] Creating layer inception_4b/3x3_reduce_bn
I1015 04:13:11.275635   246 layer_factory.cpp:192] Layer inception_4b/3x3_reduce_bn is using CUDNN engine.
I1015 04:13:11.275652   246 net.cpp:99] Creating Layer inception_4b/3x3_reduce_bn
I1015 04:13:11.275662   246 net.cpp:479] inception_4b/3x3_reduce_bn <- inception_4b/3x3_reduce
I1015 04:13:11.275679   246 net.cpp:435] inception_4b/3x3_reduce_bn -> inception_4b/3x3_reduce_bn
I1015 04:13:11.275696   246 net.cpp:163] Setting up inception_4b/3x3_reduce_bn
I1015 04:13:11.277132   246 cudnn_bn_layer.cpp:30] using cuDNN BN engine
I1015 04:13:11.277168   246 net.cpp:170] Top shape: 96 96 14 14 (1806336)
I1015 04:13:11.277184   246 layer_factory.hpp:74] Creating layer inception_4b/relu_3x3_reduce
I1015 04:13:11.277217   246 net.cpp:99] Creating Layer inception_4b/relu_3x3_reduce
I1015 04:13:11.277230   246 net.cpp:479] inception_4b/relu_3x3_reduce <- inception_4b/3x3_reduce_bn
I1015 04:13:11.277243   246 net.cpp:424] inception_4b/relu_3x3_reduce -> inception_4b/3x3_reduce_bn (in-place)
I1015 04:13:11.277259   246 net.cpp:163] Setting up inception_4b/relu_3x3_reduce
I1015 04:13:11.278048   246 net.cpp:170] Top shape: 96 96 14 14 (1806336)
I1015 04:13:11.278067   246 layer_factory.hpp:74] Creating layer inception_4b/3x3
I1015 04:13:11.278087   246 net.cpp:99] Creating Layer inception_4b/3x3
I1015 04:13:11.278095   246 net.cpp:479] inception_4b/3x3 <- inception_4b/3x3_reduce_bn
I1015 04:13:11.278116   246 net.cpp:435] inception_4b/3x3 -> inception_4b/3x3
I1015 04:13:11.278131   246 net.cpp:163] Setting up inception_4b/3x3
I1015 04:13:11.311357   246 net.cpp:170] Top shape: 96 128 14 14 (2408448)
I1015 04:13:11.311398   246 layer_factory.hpp:74] Creating layer inception_4b/3x3_bn
I1015 04:13:11.311408   246 layer_factory.cpp:192] Layer inception_4b/3x3_bn is using CUDNN engine.
I1015 04:13:11.311425   246 net.cpp:99] Creating Layer inception_4b/3x3_bn
I1015 04:13:11.311436   246 net.cpp:479] inception_4b/3x3_bn <- inception_4b/3x3
I1015 04:13:11.311451   246 net.cpp:435] inception_4b/3x3_bn -> inception_4b/3x3_bn
I1015 04:13:11.311463   246 net.cpp:163] Setting up inception_4b/3x3_bn
I1015 04:13:11.312184   246 cudnn_bn_layer.cpp:30] using cuDNN BN engine
I1015 04:13:11.312211   246 net.cpp:170] Top shape: 96 128 14 14 (2408448)
I1015 04:13:11.312227   246 layer_factory.hpp:74] Creating layer inception_4b/relu_3x3
I1015 04:13:11.312252   246 net.cpp:99] Creating Layer inception_4b/relu_3x3
I1015 04:13:11.312259   246 net.cpp:479] inception_4b/relu_3x3 <- inception_4b/3x3_bn
I1015 04:13:11.312275   246 net.cpp:424] inception_4b/relu_3x3 -> inception_4b/3x3_bn (in-place)
I1015 04:13:11.312288   246 net.cpp:163] Setting up inception_4b/relu_3x3
I1015 04:13:11.315999   246 net.cpp:170] Top shape: 96 128 14 14 (2408448)
I1015 04:13:11.316016   246 layer_factory.hpp:74] Creating layer inception_4b/double_3x3_reduce
I1015 04:13:11.316031   246 net.cpp:99] Creating Layer inception_4b/double_3x3_reduce
I1015 04:13:11.316040   246 net.cpp:479] inception_4b/double_3x3_reduce <- inception_4a/output_inception_4a/output_0_split_2
I1015 04:13:11.316053   246 net.cpp:435] inception_4b/double_3x3_reduce -> inception_4b/double_3x3_reduce
I1015 04:13:11.316063   246 net.cpp:163] Setting up inception_4b/double_3x3_reduce
I1015 04:13:11.344826   246 net.cpp:170] Top shape: 96 96 14 14 (1806336)
I1015 04:13:11.344875   246 layer_factory.hpp:74] Creating layer inception_4b/double_3x3_reduce_bn
I1015 04:13:11.344892   246 layer_factory.cpp:192] Layer inception_4b/double_3x3_reduce_bn is using CUDNN engine.
I1015 04:13:11.344926   246 net.cpp:99] Creating Layer inception_4b/double_3x3_reduce_bn
I1015 04:13:11.344949   246 net.cpp:479] inception_4b/double_3x3_reduce_bn <- inception_4b/double_3x3_reduce
I1015 04:13:11.344971   246 net.cpp:435] inception_4b/double_3x3_reduce_bn -> inception_4b/double_3x3_reduce_bn
I1015 04:13:11.345000   246 net.cpp:163] Setting up inception_4b/double_3x3_reduce_bn
I1015 04:13:11.346324   246 cudnn_bn_layer.cpp:30] using cuDNN BN engine
I1015 04:13:11.346379   246 net.cpp:170] Top shape: 96 96 14 14 (1806336)
I1015 04:13:11.346413   246 layer_factory.hpp:74] Creating layer inception_4b/relu_double_3x3_reduce
I1015 04:13:11.346459   246 net.cpp:99] Creating Layer inception_4b/relu_double_3x3_reduce
I1015 04:13:11.346487   246 net.cpp:479] inception_4b/relu_double_3x3_reduce <- inception_4b/double_3x3_reduce_bn
I1015 04:13:11.346509   246 net.cpp:424] inception_4b/relu_double_3x3_reduce -> inception_4b/double_3x3_reduce_bn (in-place)
I1015 04:13:11.346536   246 net.cpp:163] Setting up inception_4b/relu_double_3x3_reduce
I1015 04:13:11.348969   246 net.cpp:170] Top shape: 96 96 14 14 (1806336)
I1015 04:13:11.349006   246 layer_factory.hpp:74] Creating layer inception_4b/double_3x3_1
I1015 04:13:11.349035   246 net.cpp:99] Creating Layer inception_4b/double_3x3_1
I1015 04:13:11.349052   246 net.cpp:479] inception_4b/double_3x3_1 <- inception_4b/double_3x3_reduce_bn
I1015 04:13:11.349099   246 net.cpp:435] inception_4b/double_3x3_1 -> inception_4b/double_3x3_1
I1015 04:13:11.349131   246 net.cpp:163] Setting up inception_4b/double_3x3_1
I1015 04:13:11.383445   246 net.cpp:170] Top shape: 96 128 14 14 (2408448)
I1015 04:13:11.383469   246 layer_factory.hpp:74] Creating layer inception_4b/double_3x3_1_bn
I1015 04:13:11.383481   246 layer_factory.cpp:192] Layer inception_4b/double_3x3_1_bn is using CUDNN engine.
I1015 04:13:11.383499   246 net.cpp:99] Creating Layer inception_4b/double_3x3_1_bn
I1015 04:13:11.383512   246 net.cpp:479] inception_4b/double_3x3_1_bn <- inception_4b/double_3x3_1
I1015 04:13:11.383527   246 net.cpp:435] inception_4b/double_3x3_1_bn -> inception_4b/double_3x3_1_bn
I1015 04:13:11.383564   246 net.cpp:163] Setting up inception_4b/double_3x3_1_bn
I1015 04:13:11.384375   246 cudnn_bn_layer.cpp:30] using cuDNN BN engine
I1015 04:13:11.384407   246 net.cpp:170] Top shape: 96 128 14 14 (2408448)
I1015 04:13:11.384423   246 layer_factory.hpp:74] Creating layer inception_4b/relu_double_3x3_1
I1015 04:13:11.384435   246 net.cpp:99] Creating Layer inception_4b/relu_double_3x3_1
I1015 04:13:11.384443   246 net.cpp:479] inception_4b/relu_double_3x3_1 <- inception_4b/double_3x3_1_bn
I1015 04:13:11.384461   246 net.cpp:424] inception_4b/relu_double_3x3_1 -> inception_4b/double_3x3_1_bn (in-place)
I1015 04:13:11.384474   246 net.cpp:163] Setting up inception_4b/relu_double_3x3_1
I1015 04:13:11.387697   246 net.cpp:170] Top shape: 96 128 14 14 (2408448)
I1015 04:13:11.387737   246 layer_factory.hpp:74] Creating layer inception_4b/double_3x3_2
I1015 04:13:11.387756   246 net.cpp:99] Creating Layer inception_4b/double_3x3_2
I1015 04:13:11.387766   246 net.cpp:479] inception_4b/double_3x3_2 <- inception_4b/double_3x3_1_bn
I1015 04:13:11.387782   246 net.cpp:435] inception_4b/double_3x3_2 -> inception_4b/double_3x3_2
I1015 04:13:11.387797   246 net.cpp:163] Setting up inception_4b/double_3x3_2
I1015 04:13:11.422971   246 net.cpp:170] Top shape: 96 128 14 14 (2408448)
I1015 04:13:11.422994   246 layer_factory.hpp:74] Creating layer inception_4b/double_3x3_2_bn
I1015 04:13:11.423004   246 layer_factory.cpp:192] Layer inception_4b/double_3x3_2_bn is using CUDNN engine.
I1015 04:13:11.423022   246 net.cpp:99] Creating Layer inception_4b/double_3x3_2_bn
I1015 04:13:11.423033   246 net.cpp:479] inception_4b/double_3x3_2_bn <- inception_4b/double_3x3_2
I1015 04:13:11.423049   246 net.cpp:435] inception_4b/double_3x3_2_bn -> inception_4b/double_3x3_2_bn
I1015 04:13:11.423061   246 net.cpp:163] Setting up inception_4b/double_3x3_2_bn
I1015 04:13:11.423826   246 cudnn_bn_layer.cpp:30] using cuDNN BN engine
I1015 04:13:11.423856   246 net.cpp:170] Top shape: 96 128 14 14 (2408448)
I1015 04:13:11.423867   246 layer_factory.hpp:74] Creating layer inception_4b/relu_double_3x3_2
I1015 04:13:11.423883   246 net.cpp:99] Creating Layer inception_4b/relu_double_3x3_2
I1015 04:13:11.423893   246 net.cpp:479] inception_4b/relu_double_3x3_2 <- inception_4b/double_3x3_2_bn
I1015 04:13:11.423905   246 net.cpp:424] inception_4b/relu_double_3x3_2 -> inception_4b/double_3x3_2_bn (in-place)
I1015 04:13:11.423930   246 net.cpp:163] Setting up inception_4b/relu_double_3x3_2
I1015 04:13:11.425036   246 net.cpp:170] Top shape: 96 128 14 14 (2408448)
I1015 04:13:11.425071   246 layer_factory.hpp:74] Creating layer inception_4b/pool
I1015 04:13:11.425081   246 layer_factory.cpp:69] CUDNN does not support padding or multiple tops. Using Caffe's own pooling layer.
I1015 04:13:11.425101   246 net.cpp:99] Creating Layer inception_4b/pool
I1015 04:13:11.425112   246 net.cpp:479] inception_4b/pool <- inception_4a/output_inception_4a/output_0_split_3
I1015 04:13:11.425127   246 net.cpp:435] inception_4b/pool -> inception_4b/pool
I1015 04:13:11.425141   246 net.cpp:163] Setting up inception_4b/pool
I1015 04:13:11.425154   246 net.cpp:170] Top shape: 96 576 14 14 (10838016)
I1015 04:13:11.425163   246 layer_factory.hpp:74] Creating layer inception_4b/pool_proj
I1015 04:13:11.425180   246 net.cpp:99] Creating Layer inception_4b/pool_proj
I1015 04:13:11.425190   246 net.cpp:479] inception_4b/pool_proj <- inception_4b/pool
I1015 04:13:11.425207   246 net.cpp:435] inception_4b/pool_proj -> inception_4b/pool_proj
I1015 04:13:11.425220   246 net.cpp:163] Setting up inception_4b/pool_proj
I1015 04:13:11.455405   246 net.cpp:170] Top shape: 96 128 14 14 (2408448)
I1015 04:13:11.455431   246 layer_factory.hpp:74] Creating layer inception_4b/pool_proj_bn
I1015 04:13:11.455441   246 layer_factory.cpp:192] Layer inception_4b/pool_proj_bn is using CUDNN engine.
I1015 04:13:11.455453   246 net.cpp:99] Creating Layer inception_4b/pool_proj_bn
I1015 04:13:11.455463   246 net.cpp:479] inception_4b/pool_proj_bn <- inception_4b/pool_proj
I1015 04:13:11.455499   246 net.cpp:435] inception_4b/pool_proj_bn -> inception_4b/pool_proj_bn
I1015 04:13:11.455514   246 net.cpp:163] Setting up inception_4b/pool_proj_bn
I1015 04:13:11.456766   246 cudnn_bn_layer.cpp:30] using cuDNN BN engine
I1015 04:13:11.456802   246 net.cpp:170] Top shape: 96 128 14 14 (2408448)
I1015 04:13:11.456835   246 layer_factory.hpp:74] Creating layer inception_4b/relu_pool_proj
I1015 04:13:11.456847   246 net.cpp:99] Creating Layer inception_4b/relu_pool_proj
I1015 04:13:11.456858   246 net.cpp:479] inception_4b/relu_pool_proj <- inception_4b/pool_proj_bn
I1015 04:13:11.456876   246 net.cpp:424] inception_4b/relu_pool_proj -> inception_4b/pool_proj_bn (in-place)
I1015 04:13:11.456887   246 net.cpp:163] Setting up inception_4b/relu_pool_proj
I1015 04:13:11.461172   246 net.cpp:170] Top shape: 96 128 14 14 (2408448)
I1015 04:13:11.461195   246 layer_factory.hpp:74] Creating layer inception_4b/output
I1015 04:13:11.461213   246 net.cpp:99] Creating Layer inception_4b/output
I1015 04:13:11.461225   246 net.cpp:479] inception_4b/output <- inception_4b/1x1_bn
I1015 04:13:11.461237   246 net.cpp:479] inception_4b/output <- inception_4b/3x3_bn
I1015 04:13:11.461246   246 net.cpp:479] inception_4b/output <- inception_4b/double_3x3_2_bn
I1015 04:13:11.461256   246 net.cpp:479] inception_4b/output <- inception_4b/pool_proj_bn
I1015 04:13:11.461269   246 net.cpp:435] inception_4b/output -> inception_4b/output
I1015 04:13:11.461282   246 net.cpp:163] Setting up inception_4b/output
I1015 04:13:11.461298   246 net.cpp:170] Top shape: 96 576 14 14 (10838016)
I1015 04:13:11.461308   246 layer_factory.hpp:74] Creating layer inception_4b/output_inception_4b/output_0_split
I1015 04:13:11.461324   246 net.cpp:99] Creating Layer inception_4b/output_inception_4b/output_0_split
I1015 04:13:11.461335   246 net.cpp:479] inception_4b/output_inception_4b/output_0_split <- inception_4b/output
I1015 04:13:11.461346   246 net.cpp:435] inception_4b/output_inception_4b/output_0_split -> inception_4b/output_inception_4b/output_0_split_0
I1015 04:13:11.461367   246 net.cpp:435] inception_4b/output_inception_4b/output_0_split -> inception_4b/output_inception_4b/output_0_split_1
I1015 04:13:11.461380   246 net.cpp:435] inception_4b/output_inception_4b/output_0_split -> inception_4b/output_inception_4b/output_0_split_2
I1015 04:13:11.461396   246 net.cpp:435] inception_4b/output_inception_4b/output_0_split -> inception_4b/output_inception_4b/output_0_split_3
I1015 04:13:11.461408   246 net.cpp:163] Setting up inception_4b/output_inception_4b/output_0_split
I1015 04:13:11.461421   246 net.cpp:170] Top shape: 96 576 14 14 (10838016)
I1015 04:13:11.461436   246 net.cpp:170] Top shape: 96 576 14 14 (10838016)
I1015 04:13:11.461444   246 net.cpp:170] Top shape: 96 576 14 14 (10838016)
I1015 04:13:11.461457   246 net.cpp:170] Top shape: 96 576 14 14 (10838016)
I1015 04:13:11.461477   246 layer_factory.hpp:74] Creating layer inception_4c/1x1
I1015 04:13:11.461549   246 net.cpp:99] Creating Layer inception_4c/1x1
I1015 04:13:11.461562   246 net.cpp:479] inception_4c/1x1 <- inception_4b/output_inception_4b/output_0_split_0
I1015 04:13:11.461577   246 net.cpp:435] inception_4c/1x1 -> inception_4c/1x1
I1015 04:13:11.461591   246 net.cpp:163] Setting up inception_4c/1x1
I1015 04:13:11.495239   246 net.cpp:170] Top shape: 96 160 14 14 (3010560)
I1015 04:13:11.495271   246 layer_factory.hpp:74] Creating layer inception_4c/1x1_bn
I1015 04:13:11.495280   246 layer_factory.cpp:192] Layer inception_4c/1x1_bn is using CUDNN engine.
I1015 04:13:11.495301   246 net.cpp:99] Creating Layer inception_4c/1x1_bn
I1015 04:13:11.495313   246 net.cpp:479] inception_4c/1x1_bn <- inception_4c/1x1
I1015 04:13:11.495332   246 net.cpp:435] inception_4c/1x1_bn -> inception_4c/1x1_bn
I1015 04:13:11.495352   246 net.cpp:163] Setting up inception_4c/1x1_bn
I1015 04:13:11.497941   246 cudnn_bn_layer.cpp:30] using cuDNN BN engine
I1015 04:13:11.497983   246 net.cpp:170] Top shape: 96 160 14 14 (3010560)
I1015 04:13:11.498003   246 layer_factory.hpp:74] Creating layer inception_4c/relu_1x1
I1015 04:13:11.498044   246 net.cpp:99] Creating Layer inception_4c/relu_1x1
I1015 04:13:11.498059   246 net.cpp:479] inception_4c/relu_1x1 <- inception_4c/1x1_bn
I1015 04:13:11.498075   246 net.cpp:424] inception_4c/relu_1x1 -> inception_4c/1x1_bn (in-place)
I1015 04:13:11.498091   246 net.cpp:163] Setting up inception_4c/relu_1x1
I1015 04:13:11.500003   246 net.cpp:170] Top shape: 96 160 14 14 (3010560)
I1015 04:13:11.500046   246 layer_factory.hpp:74] Creating layer inception_4c/3x3_reduce
I1015 04:13:11.500072   246 net.cpp:99] Creating Layer inception_4c/3x3_reduce
I1015 04:13:11.500082   246 net.cpp:479] inception_4c/3x3_reduce <- inception_4b/output_inception_4b/output_0_split_1
I1015 04:13:11.500106   246 net.cpp:435] inception_4c/3x3_reduce -> inception_4c/3x3_reduce
I1015 04:13:11.500125   246 net.cpp:163] Setting up inception_4c/3x3_reduce
I1015 04:13:11.531988   246 net.cpp:170] Top shape: 96 128 14 14 (2408448)
I1015 04:13:11.532034   246 layer_factory.hpp:74] Creating layer inception_4c/3x3_reduce_bn
I1015 04:13:11.532047   246 layer_factory.cpp:192] Layer inception_4c/3x3_reduce_bn is using CUDNN engine.
I1015 04:13:11.532066   246 net.cpp:99] Creating Layer inception_4c/3x3_reduce_bn
I1015 04:13:11.532076   246 net.cpp:479] inception_4c/3x3_reduce_bn <- inception_4c/3x3_reduce
I1015 04:13:11.532095   246 net.cpp:435] inception_4c/3x3_reduce_bn -> inception_4c/3x3_reduce_bn
I1015 04:13:11.532114   246 net.cpp:163] Setting up inception_4c/3x3_reduce_bn
I1015 04:13:11.534394   246 cudnn_bn_layer.cpp:30] using cuDNN BN engine
I1015 04:13:11.534433   246 net.cpp:170] Top shape: 96 128 14 14 (2408448)
I1015 04:13:11.534448   246 layer_factory.hpp:74] Creating layer inception_4c/relu_3x3_reduce
I1015 04:13:11.534469   246 net.cpp:99] Creating Layer inception_4c/relu_3x3_reduce
I1015 04:13:11.534482   246 net.cpp:479] inception_4c/relu_3x3_reduce <- inception_4c/3x3_reduce_bn
I1015 04:13:11.534502   246 net.cpp:424] inception_4c/relu_3x3_reduce -> inception_4c/3x3_reduce_bn (in-place)
I1015 04:13:11.534518   246 net.cpp:163] Setting up inception_4c/relu_3x3_reduce
I1015 04:13:11.538197   246 net.cpp:170] Top shape: 96 128 14 14 (2408448)
I1015 04:13:11.538229   246 layer_factory.hpp:74] Creating layer inception_4c/3x3
I1015 04:13:11.538244   246 net.cpp:99] Creating Layer inception_4c/3x3
I1015 04:13:11.538254   246 net.cpp:479] inception_4c/3x3 <- inception_4c/3x3_reduce_bn
I1015 04:13:11.538272   246 net.cpp:435] inception_4c/3x3 -> inception_4c/3x3
I1015 04:13:11.538283   246 net.cpp:163] Setting up inception_4c/3x3
I1015 04:13:11.578836   246 net.cpp:170] Top shape: 96 160 14 14 (3010560)
I1015 04:13:11.578867   246 layer_factory.hpp:74] Creating layer inception_4c/3x3_bn
I1015 04:13:11.578877   246 layer_factory.cpp:192] Layer inception_4c/3x3_bn is using CUDNN engine.
I1015 04:13:11.578902   246 net.cpp:99] Creating Layer inception_4c/3x3_bn
I1015 04:13:11.578922   246 net.cpp:479] inception_4c/3x3_bn <- inception_4c/3x3
I1015 04:13:11.578944   246 net.cpp:435] inception_4c/3x3_bn -> inception_4c/3x3_bn
I1015 04:13:11.578963   246 net.cpp:163] Setting up inception_4c/3x3_bn
I1015 04:13:11.580358   246 cudnn_bn_layer.cpp:30] using cuDNN BN engine
I1015 04:13:11.580402   246 net.cpp:170] Top shape: 96 160 14 14 (3010560)
I1015 04:13:11.580440   246 layer_factory.hpp:74] Creating layer inception_4c/relu_3x3
I1015 04:13:11.580459   246 net.cpp:99] Creating Layer inception_4c/relu_3x3
I1015 04:13:11.580474   246 net.cpp:479] inception_4c/relu_3x3 <- inception_4c/3x3_bn
I1015 04:13:11.580488   246 net.cpp:424] inception_4c/relu_3x3 -> inception_4c/3x3_bn (in-place)
I1015 04:13:11.580507   246 net.cpp:163] Setting up inception_4c/relu_3x3
I1015 04:13:11.581971   246 net.cpp:170] Top shape: 96 160 14 14 (3010560)
I1015 04:13:11.582016   246 layer_factory.hpp:74] Creating layer inception_4c/double_3x3_reduce
I1015 04:13:11.582043   246 net.cpp:99] Creating Layer inception_4c/double_3x3_reduce
I1015 04:13:11.582056   246 net.cpp:479] inception_4c/double_3x3_reduce <- inception_4b/output_inception_4b/output_0_split_2
I1015 04:13:11.582099   246 net.cpp:435] inception_4c/double_3x3_reduce -> inception_4c/double_3x3_reduce
I1015 04:13:11.582118   246 net.cpp:163] Setting up inception_4c/double_3x3_reduce
I1015 04:13:11.614228   246 net.cpp:170] Top shape: 96 128 14 14 (2408448)
I1015 04:13:11.614259   246 layer_factory.hpp:74] Creating layer inception_4c/double_3x3_reduce_bn
I1015 04:13:11.614267   246 layer_factory.cpp:192] Layer inception_4c/double_3x3_reduce_bn is using CUDNN engine.
I1015 04:13:11.614284   246 net.cpp:99] Creating Layer inception_4c/double_3x3_reduce_bn
I1015 04:13:11.614296   246 net.cpp:479] inception_4c/double_3x3_reduce_bn <- inception_4c/double_3x3_reduce
I1015 04:13:11.614310   246 net.cpp:435] inception_4c/double_3x3_reduce_bn -> inception_4c/double_3x3_reduce_bn
I1015 04:13:11.614329   246 net.cpp:163] Setting up inception_4c/double_3x3_reduce_bn
I1015 04:13:11.615634   246 cudnn_bn_layer.cpp:30] using cuDNN BN engine
I1015 04:13:11.615670   246 net.cpp:170] Top shape: 96 128 14 14 (2408448)
I1015 04:13:11.615690   246 layer_factory.hpp:74] Creating layer inception_4c/relu_double_3x3_reduce
I1015 04:13:11.615725   246 net.cpp:99] Creating Layer inception_4c/relu_double_3x3_reduce
I1015 04:13:11.615736   246 net.cpp:479] inception_4c/relu_double_3x3_reduce <- inception_4c/double_3x3_reduce_bn
I1015 04:13:11.615753   246 net.cpp:424] inception_4c/relu_double_3x3_reduce -> inception_4c/double_3x3_reduce_bn (in-place)
I1015 04:13:11.615767   246 net.cpp:163] Setting up inception_4c/relu_double_3x3_reduce
I1015 04:13:11.620064   246 net.cpp:170] Top shape: 96 128 14 14 (2408448)
I1015 04:13:11.620087   246 layer_factory.hpp:74] Creating layer inception_4c/double_3x3_1
I1015 04:13:11.620105   246 net.cpp:99] Creating Layer inception_4c/double_3x3_1
I1015 04:13:11.620118   246 net.cpp:479] inception_4c/double_3x3_1 <- inception_4c/double_3x3_reduce_bn
I1015 04:13:11.620131   246 net.cpp:435] inception_4c/double_3x3_1 -> inception_4c/double_3x3_1
I1015 04:13:11.620146   246 net.cpp:163] Setting up inception_4c/double_3x3_1
I1015 04:13:11.662940   246 net.cpp:170] Top shape: 96 160 14 14 (3010560)
I1015 04:13:11.662974   246 layer_factory.hpp:74] Creating layer inception_4c/double_3x3_1_bn
I1015 04:13:11.662988   246 layer_factory.cpp:192] Layer inception_4c/double_3x3_1_bn is using CUDNN engine.
I1015 04:13:11.663004   246 net.cpp:99] Creating Layer inception_4c/double_3x3_1_bn
I1015 04:13:11.663018   246 net.cpp:479] inception_4c/double_3x3_1_bn <- inception_4c/double_3x3_1
I1015 04:13:11.663039   246 net.cpp:435] inception_4c/double_3x3_1_bn -> inception_4c/double_3x3_1_bn
I1015 04:13:11.663056   246 net.cpp:163] Setting up inception_4c/double_3x3_1_bn
I1015 04:13:11.664491   246 cudnn_bn_layer.cpp:30] using cuDNN BN engine
I1015 04:13:11.664535   246 net.cpp:170] Top shape: 96 160 14 14 (3010560)
I1015 04:13:11.664574   246 layer_factory.hpp:74] Creating layer inception_4c/relu_double_3x3_1
I1015 04:13:11.664592   246 net.cpp:99] Creating Layer inception_4c/relu_double_3x3_1
I1015 04:13:11.664606   246 net.cpp:479] inception_4c/relu_double_3x3_1 <- inception_4c/double_3x3_1_bn
I1015 04:13:11.664626   246 net.cpp:424] inception_4c/relu_double_3x3_1 -> inception_4c/double_3x3_1_bn (in-place)
I1015 04:13:11.664646   246 net.cpp:163] Setting up inception_4c/relu_double_3x3_1
I1015 04:13:11.666035   246 net.cpp:170] Top shape: 96 160 14 14 (3010560)
I1015 04:13:11.666077   246 layer_factory.hpp:74] Creating layer inception_4c/double_3x3_2
I1015 04:13:11.666116   246 net.cpp:99] Creating Layer inception_4c/double_3x3_2
I1015 04:13:11.666131   246 net.cpp:479] inception_4c/double_3x3_2 <- inception_4c/double_3x3_1_bn
I1015 04:13:11.666157   246 net.cpp:435] inception_4c/double_3x3_2 -> inception_4c/double_3x3_2
I1015 04:13:11.666174   246 net.cpp:163] Setting up inception_4c/double_3x3_2
I1015 04:13:11.718030   246 net.cpp:170] Top shape: 96 160 14 14 (3010560)
I1015 04:13:11.718072   246 layer_factory.hpp:74] Creating layer inception_4c/double_3x3_2_bn
I1015 04:13:11.718084   246 layer_factory.cpp:192] Layer inception_4c/double_3x3_2_bn is using CUDNN engine.
I1015 04:13:11.718168   246 net.cpp:99] Creating Layer inception_4c/double_3x3_2_bn
I1015 04:13:11.718185   246 net.cpp:479] inception_4c/double_3x3_2_bn <- inception_4c/double_3x3_2
I1015 04:13:11.718212   246 net.cpp:435] inception_4c/double_3x3_2_bn -> inception_4c/double_3x3_2_bn
I1015 04:13:11.718240   246 net.cpp:163] Setting up inception_4c/double_3x3_2_bn
I1015 04:13:11.719959   246 cudnn_bn_layer.cpp:30] using cuDNN BN engine
I1015 04:13:11.720012   246 net.cpp:170] Top shape: 96 160 14 14 (3010560)
I1015 04:13:11.720050   246 layer_factory.hpp:74] Creating layer inception_4c/relu_double_3x3_2
I1015 04:13:11.720067   246 net.cpp:99] Creating Layer inception_4c/relu_double_3x3_2
I1015 04:13:11.720082   246 net.cpp:479] inception_4c/relu_double_3x3_2 <- inception_4c/double_3x3_2_bn
I1015 04:13:11.720109   246 net.cpp:424] inception_4c/relu_double_3x3_2 -> inception_4c/double_3x3_2_bn (in-place)
I1015 04:13:11.720130   246 net.cpp:163] Setting up inception_4c/relu_double_3x3_2
I1015 04:13:11.724611   246 net.cpp:170] Top shape: 96 160 14 14 (3010560)
I1015 04:13:11.724656   246 layer_factory.hpp:74] Creating layer inception_4c/pool
I1015 04:13:11.724670   246 layer_factory.cpp:69] CUDNN does not support padding or multiple tops. Using Caffe's own pooling layer.
I1015 04:13:11.724696   246 net.cpp:99] Creating Layer inception_4c/pool
I1015 04:13:11.724712   246 net.cpp:479] inception_4c/pool <- inception_4b/output_inception_4b/output_0_split_3
I1015 04:13:11.724735   246 net.cpp:435] inception_4c/pool -> inception_4c/pool
I1015 04:13:11.724762   246 net.cpp:163] Setting up inception_4c/pool
I1015 04:13:11.724787   246 net.cpp:170] Top shape: 96 576 14 14 (10838016)
I1015 04:13:11.724802   246 layer_factory.hpp:74] Creating layer inception_4c/pool_proj
I1015 04:13:11.724820   246 net.cpp:99] Creating Layer inception_4c/pool_proj
I1015 04:13:11.724835   246 net.cpp:479] inception_4c/pool_proj <- inception_4c/pool
I1015 04:13:11.724864   246 net.cpp:435] inception_4c/pool_proj -> inception_4c/pool_proj
I1015 04:13:11.724885   246 net.cpp:163] Setting up inception_4c/pool_proj
I1015 04:13:11.757800   246 net.cpp:170] Top shape: 96 128 14 14 (2408448)
I1015 04:13:11.757827   246 layer_factory.hpp:74] Creating layer inception_4c/pool_proj_bn
I1015 04:13:11.757834   246 layer_factory.cpp:192] Layer inception_4c/pool_proj_bn is using CUDNN engine.
I1015 04:13:11.757853   246 net.cpp:99] Creating Layer inception_4c/pool_proj_bn
I1015 04:13:11.757861   246 net.cpp:479] inception_4c/pool_proj_bn <- inception_4c/pool_proj
I1015 04:13:11.757879   246 net.cpp:435] inception_4c/pool_proj_bn -> inception_4c/pool_proj_bn
I1015 04:13:11.757895   246 net.cpp:163] Setting up inception_4c/pool_proj_bn
I1015 04:13:11.759176   246 cudnn_bn_layer.cpp:30] using cuDNN BN engine
I1015 04:13:11.759219   246 net.cpp:170] Top shape: 96 128 14 14 (2408448)
I1015 04:13:11.759308   246 layer_factory.hpp:74] Creating layer inception_4c/relu_pool_proj
I1015 04:13:11.759330   246 net.cpp:99] Creating Layer inception_4c/relu_pool_proj
I1015 04:13:11.759338   246 net.cpp:479] inception_4c/relu_pool_proj <- inception_4c/pool_proj_bn
I1015 04:13:11.759356   246 net.cpp:424] inception_4c/relu_pool_proj -> inception_4c/pool_proj_bn (in-place)
I1015 04:13:11.759372   246 net.cpp:163] Setting up inception_4c/relu_pool_proj
I1015 04:13:11.761301   246 net.cpp:170] Top shape: 96 128 14 14 (2408448)
I1015 04:13:11.761323   246 layer_factory.hpp:74] Creating layer inception_4c/output
I1015 04:13:11.761343   246 net.cpp:99] Creating Layer inception_4c/output
I1015 04:13:11.761353   246 net.cpp:479] inception_4c/output <- inception_4c/1x1_bn
I1015 04:13:11.761368   246 net.cpp:479] inception_4c/output <- inception_4c/3x3_bn
I1015 04:13:11.761379   246 net.cpp:479] inception_4c/output <- inception_4c/double_3x3_2_bn
I1015 04:13:11.761391   246 net.cpp:479] inception_4c/output <- inception_4c/pool_proj_bn
I1015 04:13:11.761406   246 net.cpp:435] inception_4c/output -> inception_4c/output
I1015 04:13:11.761441   246 net.cpp:163] Setting up inception_4c/output
I1015 04:13:11.761461   246 net.cpp:170] Top shape: 96 608 14 14 (11440128)
I1015 04:13:11.761471   246 layer_factory.hpp:74] Creating layer inception_4c/output_inception_4c/output_0_split
I1015 04:13:11.761489   246 net.cpp:99] Creating Layer inception_4c/output_inception_4c/output_0_split
I1015 04:13:11.761502   246 net.cpp:479] inception_4c/output_inception_4c/output_0_split <- inception_4c/output
I1015 04:13:11.761514   246 net.cpp:435] inception_4c/output_inception_4c/output_0_split -> inception_4c/output_inception_4c/output_0_split_0
I1015 04:13:11.761538   246 net.cpp:435] inception_4c/output_inception_4c/output_0_split -> inception_4c/output_inception_4c/output_0_split_1
I1015 04:13:11.761552   246 net.cpp:435] inception_4c/output_inception_4c/output_0_split -> inception_4c/output_inception_4c/output_0_split_2
I1015 04:13:11.761620   246 net.cpp:435] inception_4c/output_inception_4c/output_0_split -> inception_4c/output_inception_4c/output_0_split_3
I1015 04:13:11.761642   246 net.cpp:163] Setting up inception_4c/output_inception_4c/output_0_split
I1015 04:13:11.761658   246 net.cpp:170] Top shape: 96 608 14 14 (11440128)
I1015 04:13:11.761667   246 net.cpp:170] Top shape: 96 608 14 14 (11440128)
I1015 04:13:11.761682   246 net.cpp:170] Top shape: 96 608 14 14 (11440128)
I1015 04:13:11.761694   246 net.cpp:170] Top shape: 96 608 14 14 (11440128)
I1015 04:13:11.761714   246 layer_factory.hpp:74] Creating layer inception_4d/1x1
I1015 04:13:11.761742   246 net.cpp:99] Creating Layer inception_4d/1x1
I1015 04:13:11.761754   246 net.cpp:479] inception_4d/1x1 <- inception_4c/output_inception_4c/output_0_split_0
I1015 04:13:11.761772   246 net.cpp:435] inception_4d/1x1 -> inception_4d/1x1
I1015 04:13:11.761786   246 net.cpp:163] Setting up inception_4d/1x1
I1015 04:13:11.792470   246 net.cpp:170] Top shape: 96 96 14 14 (1806336)
I1015 04:13:11.792495   246 layer_factory.hpp:74] Creating layer inception_4d/1x1_bn
I1015 04:13:11.792502   246 layer_factory.cpp:192] Layer inception_4d/1x1_bn is using CUDNN engine.
I1015 04:13:11.792520   246 net.cpp:99] Creating Layer inception_4d/1x1_bn
I1015 04:13:11.792528   246 net.cpp:479] inception_4d/1x1_bn <- inception_4d/1x1
I1015 04:13:11.792548   246 net.cpp:435] inception_4d/1x1_bn -> inception_4d/1x1_bn
I1015 04:13:11.792564   246 net.cpp:163] Setting up inception_4d/1x1_bn
I1015 04:13:11.795024   246 cudnn_bn_layer.cpp:30] using cuDNN BN engine
I1015 04:13:11.795065   246 net.cpp:170] Top shape: 96 96 14 14 (1806336)
I1015 04:13:11.795081   246 layer_factory.hpp:74] Creating layer inception_4d/relu_1x1
I1015 04:13:11.795094   246 net.cpp:99] Creating Layer inception_4d/relu_1x1
I1015 04:13:11.795105   246 net.cpp:479] inception_4d/relu_1x1 <- inception_4d/1x1_bn
I1015 04:13:11.795120   246 net.cpp:424] inception_4d/relu_1x1 -> inception_4d/1x1_bn (in-place)
I1015 04:13:11.795135   246 net.cpp:163] Setting up inception_4d/relu_1x1
I1015 04:13:11.795878   246 net.cpp:170] Top shape: 96 96 14 14 (1806336)
I1015 04:13:11.795920   246 layer_factory.hpp:74] Creating layer inception_4d/3x3_reduce
I1015 04:13:11.795936   246 net.cpp:99] Creating Layer inception_4d/3x3_reduce
I1015 04:13:11.795944   246 net.cpp:479] inception_4d/3x3_reduce <- inception_4c/output_inception_4c/output_0_split_1
I1015 04:13:11.795964   246 net.cpp:435] inception_4d/3x3_reduce -> inception_4d/3x3_reduce
I1015 04:13:11.795979   246 net.cpp:163] Setting up inception_4d/3x3_reduce
I1015 04:13:11.829064   246 net.cpp:170] Top shape: 96 128 14 14 (2408448)
I1015 04:13:11.829089   246 layer_factory.hpp:74] Creating layer inception_4d/3x3_reduce_bn
I1015 04:13:11.829099   246 layer_factory.cpp:192] Layer inception_4d/3x3_reduce_bn is using CUDNN engine.
I1015 04:13:11.829110   246 net.cpp:99] Creating Layer inception_4d/3x3_reduce_bn
I1015 04:13:11.829119   246 net.cpp:479] inception_4d/3x3_reduce_bn <- inception_4d/3x3_reduce
I1015 04:13:11.829135   246 net.cpp:435] inception_4d/3x3_reduce_bn -> inception_4d/3x3_reduce_bn
I1015 04:13:11.829147   246 net.cpp:163] Setting up inception_4d/3x3_reduce_bn
I1015 04:13:11.830433   246 cudnn_bn_layer.cpp:30] using cuDNN BN engine
I1015 04:13:11.830471   246 net.cpp:170] Top shape: 96 128 14 14 (2408448)
I1015 04:13:11.830488   246 layer_factory.hpp:74] Creating layer inception_4d/relu_3x3_reduce
I1015 04:13:11.830502   246 net.cpp:99] Creating Layer inception_4d/relu_3x3_reduce
I1015 04:13:11.830508   246 net.cpp:479] inception_4d/relu_3x3_reduce <- inception_4d/3x3_reduce_bn
I1015 04:13:11.830526   246 net.cpp:424] inception_4d/relu_3x3_reduce -> inception_4d/3x3_reduce_bn (in-place)
I1015 04:13:11.830540   246 net.cpp:163] Setting up inception_4d/relu_3x3_reduce
I1015 04:13:11.831312   246 net.cpp:170] Top shape: 96 128 14 14 (2408448)
I1015 04:13:11.831346   246 layer_factory.hpp:74] Creating layer inception_4d/3x3
I1015 04:13:11.831362   246 net.cpp:99] Creating Layer inception_4d/3x3
I1015 04:13:11.831374   246 net.cpp:479] inception_4d/3x3 <- inception_4d/3x3_reduce_bn
I1015 04:13:11.831393   246 net.cpp:435] inception_4d/3x3 -> inception_4d/3x3
I1015 04:13:11.831410   246 net.cpp:163] Setting up inception_4d/3x3
I1015 04:13:11.876904   246 net.cpp:170] Top shape: 96 192 14 14 (3612672)
I1015 04:13:11.876950   246 layer_factory.hpp:74] Creating layer inception_4d/3x3_bn
I1015 04:13:11.876961   246 layer_factory.cpp:192] Layer inception_4d/3x3_bn is using CUDNN engine.
I1015 04:13:11.876984   246 net.cpp:99] Creating Layer inception_4d/3x3_bn
I1015 04:13:11.876998   246 net.cpp:479] inception_4d/3x3_bn <- inception_4d/3x3
I1015 04:13:11.877020   246 net.cpp:435] inception_4d/3x3_bn -> inception_4d/3x3_bn
I1015 04:13:11.877044   246 net.cpp:163] Setting up inception_4d/3x3_bn
I1015 04:13:11.878625   246 cudnn_bn_layer.cpp:30] using cuDNN BN engine
I1015 04:13:11.878672   246 net.cpp:170] Top shape: 96 192 14 14 (3612672)
I1015 04:13:11.878691   246 layer_factory.hpp:74] Creating layer inception_4d/relu_3x3
I1015 04:13:11.878713   246 net.cpp:99] Creating Layer inception_4d/relu_3x3
I1015 04:13:11.878729   246 net.cpp:479] inception_4d/relu_3x3 <- inception_4d/3x3_bn
I1015 04:13:11.878748   246 net.cpp:424] inception_4d/relu_3x3 -> inception_4d/3x3_bn (in-place)
I1015 04:13:11.878768   246 net.cpp:163] Setting up inception_4d/relu_3x3
I1015 04:13:11.879810   246 net.cpp:170] Top shape: 96 192 14 14 (3612672)
I1015 04:13:11.879856   246 layer_factory.hpp:74] Creating layer inception_4d/double_3x3_reduce
I1015 04:13:11.879889   246 net.cpp:99] Creating Layer inception_4d/double_3x3_reduce
I1015 04:13:11.879904   246 net.cpp:479] inception_4d/double_3x3_reduce <- inception_4c/output_inception_4c/output_0_split_2
I1015 04:13:11.879942   246 net.cpp:435] inception_4d/double_3x3_reduce -> inception_4d/double_3x3_reduce
I1015 04:13:11.879968   246 net.cpp:163] Setting up inception_4d/double_3x3_reduce
I1015 04:13:11.920979   246 net.cpp:170] Top shape: 96 160 14 14 (3010560)
I1015 04:13:11.921012   246 layer_factory.hpp:74] Creating layer inception_4d/double_3x3_reduce_bn
I1015 04:13:11.921026   246 layer_factory.cpp:192] Layer inception_4d/double_3x3_reduce_bn is using CUDNN engine.
I1015 04:13:11.921049   246 net.cpp:99] Creating Layer inception_4d/double_3x3_reduce_bn
I1015 04:13:11.921061   246 net.cpp:479] inception_4d/double_3x3_reduce_bn <- inception_4d/double_3x3_reduce
I1015 04:13:11.921087   246 net.cpp:435] inception_4d/double_3x3_reduce_bn -> inception_4d/double_3x3_reduce_bn
I1015 04:13:11.921110   246 net.cpp:163] Setting up inception_4d/double_3x3_reduce_bn
I1015 04:13:11.922659   246 cudnn_bn_layer.cpp:30] using cuDNN BN engine
I1015 04:13:11.922706   246 net.cpp:170] Top shape: 96 160 14 14 (3010560)
I1015 04:13:11.922725   246 layer_factory.hpp:74] Creating layer inception_4d/relu_double_3x3_reduce
I1015 04:13:11.922744   246 net.cpp:99] Creating Layer inception_4d/relu_double_3x3_reduce
I1015 04:13:11.922758   246 net.cpp:479] inception_4d/relu_double_3x3_reduce <- inception_4d/double_3x3_reduce_bn
I1015 04:13:11.922782   246 net.cpp:424] inception_4d/relu_double_3x3_reduce -> inception_4d/double_3x3_reduce_bn (in-place)
I1015 04:13:11.922832   246 net.cpp:163] Setting up inception_4d/relu_double_3x3_reduce
I1015 04:13:11.923877   246 net.cpp:170] Top shape: 96 160 14 14 (3010560)
I1015 04:13:11.923928   246 layer_factory.hpp:74] Creating layer inception_4d/double_3x3_1
I1015 04:13:11.923971   246 net.cpp:99] Creating Layer inception_4d/double_3x3_1
I1015 04:13:11.923985   246 net.cpp:479] inception_4d/double_3x3_1 <- inception_4d/double_3x3_reduce_bn
I1015 04:13:11.924012   246 net.cpp:435] inception_4d/double_3x3_1 -> inception_4d/double_3x3_1
I1015 04:13:11.924034   246 net.cpp:163] Setting up inception_4d/double_3x3_1
I1015 04:13:11.982298   246 net.cpp:170] Top shape: 96 192 14 14 (3612672)
I1015 04:13:11.982342   246 layer_factory.hpp:74] Creating layer inception_4d/double_3x3_1_bn
I1015 04:13:11.982358   246 layer_factory.cpp:192] Layer inception_4d/double_3x3_1_bn is using CUDNN engine.
I1015 04:13:11.982383   246 net.cpp:99] Creating Layer inception_4d/double_3x3_1_bn
I1015 04:13:11.982403   246 net.cpp:479] inception_4d/double_3x3_1_bn <- inception_4d/double_3x3_1
I1015 04:13:11.982422   246 net.cpp:435] inception_4d/double_3x3_1_bn -> inception_4d/double_3x3_1_bn
I1015 04:13:11.982448   246 net.cpp:163] Setting up inception_4d/double_3x3_1_bn
I1015 04:13:11.983759   246 cudnn_bn_layer.cpp:30] using cuDNN BN engine
I1015 04:13:11.983811   246 net.cpp:170] Top shape: 96 192 14 14 (3612672)
I1015 04:13:11.983856   246 layer_factory.hpp:74] Creating layer inception_4d/relu_double_3x3_1
I1015 04:13:11.983877   246 net.cpp:99] Creating Layer inception_4d/relu_double_3x3_1
I1015 04:13:11.983897   246 net.cpp:479] inception_4d/relu_double_3x3_1 <- inception_4d/double_3x3_1_bn
I1015 04:13:11.983932   246 net.cpp:424] inception_4d/relu_double_3x3_1 -> inception_4d/double_3x3_1_bn (in-place)
I1015 04:13:11.983954   246 net.cpp:163] Setting up inception_4d/relu_double_3x3_1
I1015 04:13:11.985855   246 net.cpp:170] Top shape: 96 192 14 14 (3612672)
I1015 04:13:11.985908   246 layer_factory.hpp:74] Creating layer inception_4d/double_3x3_2
I1015 04:13:11.985956   246 net.cpp:99] Creating Layer inception_4d/double_3x3_2
I1015 04:13:11.985972   246 net.cpp:479] inception_4d/double_3x3_2 <- inception_4d/double_3x3_1_bn
I1015 04:13:11.986001   246 net.cpp:435] inception_4d/double_3x3_2 -> inception_4d/double_3x3_2
I1015 04:13:11.986034   246 net.cpp:163] Setting up inception_4d/double_3x3_2
I1015 04:13:12.057206   246 net.cpp:170] Top shape: 96 192 14 14 (3612672)
I1015 04:13:12.057250   246 layer_factory.hpp:74] Creating layer inception_4d/double_3x3_2_bn
I1015 04:13:12.057268   246 layer_factory.cpp:192] Layer inception_4d/double_3x3_2_bn is using CUDNN engine.
I1015 04:13:12.057292   246 net.cpp:99] Creating Layer inception_4d/double_3x3_2_bn
I1015 04:13:12.057310   246 net.cpp:479] inception_4d/double_3x3_2_bn <- inception_4d/double_3x3_2
I1015 04:13:12.057339   246 net.cpp:435] inception_4d/double_3x3_2_bn -> inception_4d/double_3x3_2_bn
I1015 04:13:12.057363   246 net.cpp:163] Setting up inception_4d/double_3x3_2_bn
I1015 04:13:12.058673   246 cudnn_bn_layer.cpp:30] using cuDNN BN engine
I1015 04:13:12.058720   246 net.cpp:170] Top shape: 96 192 14 14 (3612672)
I1015 04:13:12.058768   246 layer_factory.hpp:74] Creating layer inception_4d/relu_double_3x3_2
I1015 04:13:12.058789   246 net.cpp:99] Creating Layer inception_4d/relu_double_3x3_2
I1015 04:13:12.058802   246 net.cpp:479] inception_4d/relu_double_3x3_2 <- inception_4d/double_3x3_2_bn
I1015 04:13:12.058831   246 net.cpp:424] inception_4d/relu_double_3x3_2 -> inception_4d/double_3x3_2_bn (in-place)
I1015 04:13:12.058852   246 net.cpp:163] Setting up inception_4d/relu_double_3x3_2
I1015 04:13:12.060768   246 net.cpp:170] Top shape: 96 192 14 14 (3612672)
I1015 04:13:12.060818   246 layer_factory.hpp:74] Creating layer inception_4d/pool
I1015 04:13:12.060834   246 layer_factory.cpp:69] CUDNN does not support padding or multiple tops. Using Caffe's own pooling layer.
I1015 04:13:12.060856   246 net.cpp:99] Creating Layer inception_4d/pool
I1015 04:13:12.060876   246 net.cpp:479] inception_4d/pool <- inception_4c/output_inception_4c/output_0_split_3
I1015 04:13:12.060977   246 net.cpp:435] inception_4d/pool -> inception_4d/pool
I1015 04:13:12.061007   246 net.cpp:163] Setting up inception_4d/pool
I1015 04:13:12.061028   246 net.cpp:170] Top shape: 96 608 14 14 (11440128)
I1015 04:13:12.061041   246 layer_factory.hpp:74] Creating layer inception_4d/pool_proj
I1015 04:13:12.061061   246 net.cpp:99] Creating Layer inception_4d/pool_proj
I1015 04:13:12.061077   246 net.cpp:479] inception_4d/pool_proj <- inception_4d/pool
I1015 04:13:12.061095   246 net.cpp:435] inception_4d/pool_proj -> inception_4d/pool_proj
I1015 04:13:12.061117   246 net.cpp:163] Setting up inception_4d/pool_proj
I1015 04:13:12.101766   246 net.cpp:170] Top shape: 96 128 14 14 (2408448)
I1015 04:13:12.101805   246 layer_factory.hpp:74] Creating layer inception_4d/pool_proj_bn
I1015 04:13:12.101821   246 layer_factory.cpp:192] Layer inception_4d/pool_proj_bn is using CUDNN engine.
I1015 04:13:12.101847   246 net.cpp:99] Creating Layer inception_4d/pool_proj_bn
I1015 04:13:12.101861   246 net.cpp:479] inception_4d/pool_proj_bn <- inception_4d/pool_proj
I1015 04:13:12.101887   246 net.cpp:435] inception_4d/pool_proj_bn -> inception_4d/pool_proj_bn
I1015 04:13:12.101928   246 net.cpp:163] Setting up inception_4d/pool_proj_bn
I1015 04:13:12.103224   246 cudnn_bn_layer.cpp:30] using cuDNN BN engine
I1015 04:13:12.103276   246 net.cpp:170] Top shape: 96 128 14 14 (2408448)
I1015 04:13:12.103341   246 layer_factory.hpp:74] Creating layer inception_4d/relu_pool_proj
I1015 04:13:12.103368   246 net.cpp:99] Creating Layer inception_4d/relu_pool_proj
I1015 04:13:12.103379   246 net.cpp:479] inception_4d/relu_pool_proj <- inception_4d/pool_proj_bn
I1015 04:13:12.103410   246 net.cpp:424] inception_4d/relu_pool_proj -> inception_4d/pool_proj_bn (in-place)
I1015 04:13:12.103431   246 net.cpp:163] Setting up inception_4d/relu_pool_proj
I1015 04:13:12.106580   246 net.cpp:170] Top shape: 96 128 14 14 (2408448)
I1015 04:13:12.106613   246 layer_factory.hpp:74] Creating layer inception_4d/output
I1015 04:13:12.106635   246 net.cpp:99] Creating Layer inception_4d/output
I1015 04:13:12.106657   246 net.cpp:479] inception_4d/output <- inception_4d/1x1_bn
I1015 04:13:12.106679   246 net.cpp:479] inception_4d/output <- inception_4d/3x3_bn
I1015 04:13:12.106694   246 net.cpp:479] inception_4d/output <- inception_4d/double_3x3_2_bn
I1015 04:13:12.106712   246 net.cpp:479] inception_4d/output <- inception_4d/pool_proj_bn
I1015 04:13:12.106735   246 net.cpp:435] inception_4d/output -> inception_4d/output
I1015 04:13:12.106755   246 net.cpp:163] Setting up inception_4d/output
I1015 04:13:12.106784   246 net.cpp:170] Top shape: 96 608 14 14 (11440128)
I1015 04:13:12.106798   246 layer_factory.hpp:74] Creating layer inception_4d/output_inception_4d/output_0_split
I1015 04:13:12.106827   246 net.cpp:99] Creating Layer inception_4d/output_inception_4d/output_0_split
I1015 04:13:12.106846   246 net.cpp:479] inception_4d/output_inception_4d/output_0_split <- inception_4d/output
I1015 04:13:12.106865   246 net.cpp:435] inception_4d/output_inception_4d/output_0_split -> inception_4d/output_inception_4d/output_0_split_0
I1015 04:13:12.106894   246 net.cpp:435] inception_4d/output_inception_4d/output_0_split -> inception_4d/output_inception_4d/output_0_split_1
I1015 04:13:12.106927   246 net.cpp:435] inception_4d/output_inception_4d/output_0_split -> inception_4d/output_inception_4d/output_0_split_2
I1015 04:13:12.106957   246 net.cpp:163] Setting up inception_4d/output_inception_4d/output_0_split
I1015 04:13:12.106982   246 net.cpp:170] Top shape: 96 608 14 14 (11440128)
I1015 04:13:12.107004   246 net.cpp:170] Top shape: 96 608 14 14 (11440128)
I1015 04:13:12.107023   246 net.cpp:170] Top shape: 96 608 14 14 (11440128)
I1015 04:13:12.107048   246 layer_factory.hpp:74] Creating layer inception_4e/3x3_reduce
I1015 04:13:12.107080   246 net.cpp:99] Creating Layer inception_4e/3x3_reduce
I1015 04:13:12.107097   246 net.cpp:479] inception_4e/3x3_reduce <- inception_4d/output_inception_4d/output_0_split_0
I1015 04:13:12.107156   246 net.cpp:435] inception_4e/3x3_reduce -> inception_4e/3x3_reduce
I1015 04:13:12.107182   246 net.cpp:163] Setting up inception_4e/3x3_reduce
I1015 04:13:12.172284   246 net.cpp:170] Top shape: 96 128 14 14 (2408448)
I1015 04:13:12.172329   246 layer_factory.hpp:74] Creating layer inception_4e/3x3_reduce_bn
I1015 04:13:12.172344   246 layer_factory.cpp:192] Layer inception_4e/3x3_reduce_bn is using CUDNN engine.
I1015 04:13:12.172369   246 net.cpp:99] Creating Layer inception_4e/3x3_reduce_bn
I1015 04:13:12.172389   246 net.cpp:479] inception_4e/3x3_reduce_bn <- inception_4e/3x3_reduce
I1015 04:13:12.172408   246 net.cpp:435] inception_4e/3x3_reduce_bn -> inception_4e/3x3_reduce_bn
I1015 04:13:12.172435   246 net.cpp:163] Setting up inception_4e/3x3_reduce_bn
I1015 04:13:12.173743   246 cudnn_bn_layer.cpp:30] using cuDNN BN engine
I1015 04:13:12.173796   246 net.cpp:170] Top shape: 96 128 14 14 (2408448)
I1015 04:13:12.173833   246 layer_factory.hpp:74] Creating layer inception_4e/relu_3x3_reduce
I1015 04:13:12.173853   246 net.cpp:99] Creating Layer inception_4e/relu_3x3_reduce
I1015 04:13:12.173873   246 net.cpp:479] inception_4e/relu_3x3_reduce <- inception_4e/3x3_reduce_bn
I1015 04:13:12.173895   246 net.cpp:424] inception_4e/relu_3x3_reduce -> inception_4e/3x3_reduce_bn (in-place)
I1015 04:13:12.173930   246 net.cpp:163] Setting up inception_4e/relu_3x3_reduce
I1015 04:13:12.176515   246 net.cpp:170] Top shape: 96 128 14 14 (2408448)
I1015 04:13:12.176568   246 layer_factory.hpp:74] Creating layer inception_4e/3x3
I1015 04:13:12.176605   246 net.cpp:99] Creating Layer inception_4e/3x3
I1015 04:13:12.176625   246 net.cpp:479] inception_4e/3x3 <- inception_4e/3x3_reduce_bn
I1015 04:13:12.176656   246 net.cpp:435] inception_4e/3x3 -> inception_4e/3x3
I1015 04:13:12.176681   246 net.cpp:163] Setting up inception_4e/3x3
I1015 04:13:12.201352   246 net.cpp:170] Top shape: 96 192 7 7 (903168)
I1015 04:13:12.201391   246 layer_factory.hpp:74] Creating layer inception_4e/3x3_bn
I1015 04:13:12.201407   246 layer_factory.cpp:192] Layer inception_4e/3x3_bn is using CUDNN engine.
I1015 04:13:12.201431   246 net.cpp:99] Creating Layer inception_4e/3x3_bn
I1015 04:13:12.201450   246 net.cpp:479] inception_4e/3x3_bn <- inception_4e/3x3
I1015 04:13:12.201472   246 net.cpp:435] inception_4e/3x3_bn -> inception_4e/3x3_bn
I1015 04:13:12.201495   246 net.cpp:163] Setting up inception_4e/3x3_bn
I1015 04:13:12.203279   246 cudnn_bn_layer.cpp:30] using cuDNN BN engine
I1015 04:13:12.203333   246 net.cpp:170] Top shape: 96 192 7 7 (903168)
I1015 04:13:12.203369   246 layer_factory.hpp:74] Creating layer inception_4e/relu_3x3
I1015 04:13:12.203387   246 net.cpp:99] Creating Layer inception_4e/relu_3x3
I1015 04:13:12.203405   246 net.cpp:479] inception_4e/relu_3x3 <- inception_4e/3x3_bn
I1015 04:13:12.203433   246 net.cpp:424] inception_4e/relu_3x3 -> inception_4e/3x3_bn (in-place)
I1015 04:13:12.203455   246 net.cpp:163] Setting up inception_4e/relu_3x3
I1015 04:13:12.205190   246 net.cpp:170] Top shape: 96 192 7 7 (903168)
I1015 04:13:12.205236   246 layer_factory.hpp:74] Creating layer inception_4e/double_3x3_reduce
I1015 04:13:12.205268   246 net.cpp:99] Creating Layer inception_4e/double_3x3_reduce
I1015 04:13:12.205288   246 net.cpp:479] inception_4e/double_3x3_reduce <- inception_4d/output_inception_4d/output_0_split_1
I1015 04:13:12.205318   246 net.cpp:435] inception_4e/double_3x3_reduce -> inception_4e/double_3x3_reduce
I1015 04:13:12.205346   246 net.cpp:163] Setting up inception_4e/double_3x3_reduce
I1015 04:13:12.253743   246 net.cpp:170] Top shape: 96 192 14 14 (3612672)
I1015 04:13:12.253782   246 layer_factory.hpp:74] Creating layer inception_4e/double_3x3_reduce_bn
I1015 04:13:12.253803   246 layer_factory.cpp:192] Layer inception_4e/double_3x3_reduce_bn is using CUDNN engine.
I1015 04:13:12.253824   246 net.cpp:99] Creating Layer inception_4e/double_3x3_reduce_bn
I1015 04:13:12.253842   246 net.cpp:479] inception_4e/double_3x3_reduce_bn <- inception_4e/double_3x3_reduce
I1015 04:13:12.253926   246 net.cpp:435] inception_4e/double_3x3_reduce_bn -> inception_4e/double_3x3_reduce_bn
I1015 04:13:12.253954   246 net.cpp:163] Setting up inception_4e/double_3x3_reduce_bn
I1015 04:13:12.256693   246 cudnn_bn_layer.cpp:30] using cuDNN BN engine
I1015 04:13:12.256745   246 net.cpp:170] Top shape: 96 192 14 14 (3612672)
I1015 04:13:12.256790   246 layer_factory.hpp:74] Creating layer inception_4e/relu_double_3x3_reduce
I1015 04:13:12.256817   246 net.cpp:99] Creating Layer inception_4e/relu_double_3x3_reduce
I1015 04:13:12.256834   246 net.cpp:479] inception_4e/relu_double_3x3_reduce <- inception_4e/double_3x3_reduce_bn
I1015 04:13:12.256860   246 net.cpp:424] inception_4e/relu_double_3x3_reduce -> inception_4e/double_3x3_reduce_bn (in-place)
I1015 04:13:12.256891   246 net.cpp:163] Setting up inception_4e/relu_double_3x3_reduce
I1015 04:13:12.259337   246 net.cpp:170] Top shape: 96 192 14 14 (3612672)
I1015 04:13:12.259371   246 layer_factory.hpp:74] Creating layer inception_4e/double_3x3_1
I1015 04:13:12.259438   246 net.cpp:99] Creating Layer inception_4e/double_3x3_1
I1015 04:13:12.259459   246 net.cpp:479] inception_4e/double_3x3_1 <- inception_4e/double_3x3_reduce_bn
I1015 04:13:12.259479   246 net.cpp:435] inception_4e/double_3x3_1 -> inception_4e/double_3x3_1
I1015 04:13:12.259517   246 net.cpp:163] Setting up inception_4e/double_3x3_1
I1015 04:13:12.329057   246 net.cpp:170] Top shape: 96 256 14 14 (4816896)
I1015 04:13:12.329097   246 layer_factory.hpp:74] Creating layer inception_4e/double_3x3_1_bn
I1015 04:13:12.329116   246 layer_factory.cpp:192] Layer inception_4e/double_3x3_1_bn is using CUDNN engine.
I1015 04:13:12.329139   246 net.cpp:99] Creating Layer inception_4e/double_3x3_1_bn
I1015 04:13:12.329157   246 net.cpp:479] inception_4e/double_3x3_1_bn <- inception_4e/double_3x3_1
I1015 04:13:12.329185   246 net.cpp:435] inception_4e/double_3x3_1_bn -> inception_4e/double_3x3_1_bn
I1015 04:13:12.329207   246 net.cpp:163] Setting up inception_4e/double_3x3_1_bn
I1015 04:13:12.331008   246 cudnn_bn_layer.cpp:30] using cuDNN BN engine
I1015 04:13:12.331063   246 net.cpp:170] Top shape: 96 256 14 14 (4816896)
I1015 04:13:12.331110   246 layer_factory.hpp:74] Creating layer inception_4e/relu_double_3x3_1
I1015 04:13:12.331130   246 net.cpp:99] Creating Layer inception_4e/relu_double_3x3_1
I1015 04:13:12.331146   246 net.cpp:479] inception_4e/relu_double_3x3_1 <- inception_4e/double_3x3_1_bn
I1015 04:13:12.331176   246 net.cpp:424] inception_4e/relu_double_3x3_1 -> inception_4e/double_3x3_1_bn (in-place)
I1015 04:13:12.331198   246 net.cpp:163] Setting up inception_4e/relu_double_3x3_1
I1015 04:13:12.333760   246 net.cpp:170] Top shape: 96 256 14 14 (4816896)
I1015 04:13:12.333788   246 layer_factory.hpp:74] Creating layer inception_4e/double_3x3_2
I1015 04:13:12.333830   246 net.cpp:99] Creating Layer inception_4e/double_3x3_2
I1015 04:13:12.333844   246 net.cpp:479] inception_4e/double_3x3_2 <- inception_4e/double_3x3_1_bn
I1015 04:13:12.333871   246 net.cpp:435] inception_4e/double_3x3_2 -> inception_4e/double_3x3_2
I1015 04:13:12.333889   246 net.cpp:163] Setting up inception_4e/double_3x3_2
I1015 04:13:12.362764   246 net.cpp:170] Top shape: 96 256 7 7 (1204224)
I1015 04:13:12.362787   246 layer_factory.hpp:74] Creating layer inception_4e/double_3x3_2_bn
I1015 04:13:12.362793   246 layer_factory.cpp:192] Layer inception_4e/double_3x3_2_bn is using CUDNN engine.
I1015 04:13:12.362807   246 net.cpp:99] Creating Layer inception_4e/double_3x3_2_bn
I1015 04:13:12.362818   246 net.cpp:479] inception_4e/double_3x3_2_bn <- inception_4e/double_3x3_2
I1015 04:13:12.362833   246 net.cpp:435] inception_4e/double_3x3_2_bn -> inception_4e/double_3x3_2_bn
I1015 04:13:12.362848   246 net.cpp:163] Setting up inception_4e/double_3x3_2_bn
I1015 04:13:12.364070   246 cudnn_bn_layer.cpp:30] using cuDNN BN engine
I1015 04:13:12.364111   246 net.cpp:170] Top shape: 96 256 7 7 (1204224)
I1015 04:13:12.364130   246 layer_factory.hpp:74] Creating layer inception_4e/relu_double_3x3_2
I1015 04:13:12.364148   246 net.cpp:99] Creating Layer inception_4e/relu_double_3x3_2
I1015 04:13:12.364188   246 net.cpp:479] inception_4e/relu_double_3x3_2 <- inception_4e/double_3x3_2_bn
I1015 04:13:12.364205   246 net.cpp:424] inception_4e/relu_double_3x3_2 -> inception_4e/double_3x3_2_bn (in-place)
I1015 04:13:12.364228   246 net.cpp:163] Setting up inception_4e/relu_double_3x3_2
I1015 04:13:12.365515   246 net.cpp:170] Top shape: 96 256 7 7 (1204224)
I1015 04:13:12.365538   246 layer_factory.hpp:74] Creating layer inception_4e/pool
I1015 04:13:12.365567   246 net.cpp:99] Creating Layer inception_4e/pool
I1015 04:13:12.365581   246 net.cpp:479] inception_4e/pool <- inception_4d/output_inception_4d/output_0_split_2
I1015 04:13:12.365598   246 net.cpp:435] inception_4e/pool -> inception_4e/pool
I1015 04:13:12.365617   246 net.cpp:163] Setting up inception_4e/pool
I1015 04:13:12.366894   246 net.cpp:170] Top shape: 96 608 7 7 (2860032)
I1015 04:13:12.366928   246 layer_factory.hpp:74] Creating layer inception_4e/output
I1015 04:13:12.366945   246 net.cpp:99] Creating Layer inception_4e/output
I1015 04:13:12.366955   246 net.cpp:479] inception_4e/output <- inception_4e/3x3_bn
I1015 04:13:12.366971   246 net.cpp:479] inception_4e/output <- inception_4e/double_3x3_2_bn
I1015 04:13:12.366982   246 net.cpp:479] inception_4e/output <- inception_4e/pool
I1015 04:13:12.367002   246 net.cpp:435] inception_4e/output -> inception_4e/output
I1015 04:13:12.367020   246 net.cpp:163] Setting up inception_4e/output
I1015 04:13:12.367035   246 net.cpp:170] Top shape: 96 1056 7 7 (4967424)
I1015 04:13:12.367048   246 layer_factory.hpp:74] Creating layer inception_4e/output_inception_4e/output_0_split
I1015 04:13:12.367069   246 net.cpp:99] Creating Layer inception_4e/output_inception_4e/output_0_split
I1015 04:13:12.367080   246 net.cpp:479] inception_4e/output_inception_4e/output_0_split <- inception_4e/output
I1015 04:13:12.367097   246 net.cpp:435] inception_4e/output_inception_4e/output_0_split -> inception_4e/output_inception_4e/output_0_split_0
I1015 04:13:12.367113   246 net.cpp:435] inception_4e/output_inception_4e/output_0_split -> inception_4e/output_inception_4e/output_0_split_1
I1015 04:13:12.367133   246 net.cpp:435] inception_4e/output_inception_4e/output_0_split -> inception_4e/output_inception_4e/output_0_split_2
I1015 04:13:12.367152   246 net.cpp:435] inception_4e/output_inception_4e/output_0_split -> inception_4e/output_inception_4e/output_0_split_3
I1015 04:13:12.367168   246 net.cpp:163] Setting up inception_4e/output_inception_4e/output_0_split
I1015 04:13:12.367187   246 net.cpp:170] Top shape: 96 1056 7 7 (4967424)
I1015 04:13:12.367197   246 net.cpp:170] Top shape: 96 1056 7 7 (4967424)
I1015 04:13:12.367213   246 net.cpp:170] Top shape: 96 1056 7 7 (4967424)
I1015 04:13:12.367224   246 net.cpp:170] Top shape: 96 1056 7 7 (4967424)
I1015 04:13:12.367235   246 layer_factory.hpp:74] Creating layer inception_5a/1x1
I1015 04:13:12.367270   246 net.cpp:99] Creating Layer inception_5a/1x1
I1015 04:13:12.367285   246 net.cpp:479] inception_5a/1x1 <- inception_4e/output_inception_4e/output_0_split_0
I1015 04:13:12.367302   246 net.cpp:435] inception_5a/1x1 -> inception_5a/1x1
I1015 04:13:12.367317   246 net.cpp:163] Setting up inception_5a/1x1
I1015 04:13:12.434021   246 net.cpp:170] Top shape: 96 352 7 7 (1655808)
I1015 04:13:12.434062   246 layer_factory.hpp:74] Creating layer inception_5a/1x1_bn
I1015 04:13:12.434080   246 layer_factory.cpp:192] Layer inception_5a/1x1_bn is using CUDNN engine.
I1015 04:13:12.434103   246 net.cpp:99] Creating Layer inception_5a/1x1_bn
I1015 04:13:12.434120   246 net.cpp:479] inception_5a/1x1_bn <- inception_5a/1x1
I1015 04:13:12.434149   246 net.cpp:435] inception_5a/1x1_bn -> inception_5a/1x1_bn
I1015 04:13:12.434170   246 net.cpp:163] Setting up inception_5a/1x1_bn
…
I1015 04:13:14.472852   246 net.cpp:170] Top shape: 3 192 14 14 (112896)
I1015 04:13:14.472870   246 layer_factory.hpp:74] Creating layer inception_4d/double_3x3_1_bn
I1015 04:13:14.472877   246 layer_factory.cpp:192] Layer inception_4d/double_3x3_1_bn is using CUDNN engine.
I1015 04:13:14.472887   246 net.cpp:99] Creating Layer inception_4d/double_3x3_1_bn
I1015 04:13:14.472892   246 net.cpp:479] inception_4d/double_3x3_1_bn <- inception_4d/double_3x3_1
I1015 04:13:14.472905   246 net.cpp:435] inception_4d/double_3x3_1_bn -> inception_4d/double_3x3_1_bn
I1015 04:13:14.472926   246 net.cpp:163] Setting up inception_4d/double_3x3_1_bn
I1015 04:13:14.473449   246 cudnn_bn_layer.cpp:30] using cuDNN BN engine
I1015 04:13:14.473469   246 net.cpp:170] Top shape: 3 192 14 14 (112896)
I1015 04:13:14.473480   246 layer_factory.hpp:74] Creating layer inception_4d/relu_double_3x3_1
I1015 04:13:14.473491   246 net.cpp:99] Creating Layer inception_4d/relu_double_3x3_1
I1015 04:13:14.473498   246 net.cpp:479] inception_4d/relu_double_3x3_1 <- inception_4d/double_3x3_1_bn
I1015 04:13:14.473510   246 net.cpp:424] inception_4d/relu_double_3x3_1 -> inception_4d/double_3x3_1_bn (in-place)
I1015 04:13:14.473517   246 net.cpp:163] Setting up inception_4d/relu_double_3x3_1
I1015 04:13:14.474277   246 net.cpp:170] Top shape: 3 192 14 14 (112896)
I1015 04:13:14.474292   246 layer_factory.hpp:74] Creating layer inception_4d/double_3x3_2
I1015 04:13:14.474303   246 net.cpp:99] Creating Layer inception_4d/double_3x3_2
I1015 04:13:14.474310   246 net.cpp:479] inception_4d/double_3x3_2 <- inception_4d/double_3x3_1_bn
I1015 04:13:14.474319   246 net.cpp:435] inception_4d/double_3x3_2 -> inception_4d/double_3x3_2
I1015 04:13:14.474331   246 net.cpp:163] Setting up inception_4d/double_3x3_2
I1015 04:13:14.499704   246 net.cpp:170] Top shape: 3 192 14 14 (112896)
I1015 04:13:14.499724   246 layer_factory.hpp:74] Creating layer inception_4d/double_3x3_2_bn
I1015 04:13:14.499732   246 layer_factory.cpp:192] Layer inception_4d/double_3x3_2_bn is using CUDNN engine.
I1015 04:13:14.499739   246 net.cpp:99] Creating Layer inception_4d/double_3x3_2_bn
I1015 04:13:14.499747   246 net.cpp:479] inception_4d/double_3x3_2_bn <- inception_4d/double_3x3_2
I1015 04:13:14.499756   246 net.cpp:435] inception_4d/double_3x3_2_bn -> inception_4d/double_3x3_2_bn
I1015 04:13:14.499766   246 net.cpp:163] Setting up inception_4d/double_3x3_2_bn
I1015 04:13:14.500560   246 cudnn_bn_layer.cpp:30] using cuDNN BN engine
I1015 04:13:14.500583   246 net.cpp:170] Top shape: 3 192 14 14 (112896)
I1015 04:13:14.500597   246 layer_factory.hpp:74] Creating layer inception_4d/relu_double_3x3_2
I1015 04:13:14.500604   246 net.cpp:99] Creating Layer inception_4d/relu_double_3x3_2
I1015 04:13:14.500610   246 net.cpp:479] inception_4d/relu_double_3x3_2 <- inception_4d/double_3x3_2_bn
I1015 04:13:14.500622   246 net.cpp:424] inception_4d/relu_double_3x3_2 -> inception_4d/double_3x3_2_bn (in-place)
I1015 04:13:14.500630   246 net.cpp:163] Setting up inception_4d/relu_double_3x3_2
I1015 04:13:14.503530   246 net.cpp:170] Top shape: 3 192 14 14 (112896)
I1015 04:13:14.503545   246 layer_factory.hpp:74] Creating layer inception_4d/pool
I1015 04:13:14.503554   246 layer_factory.cpp:69] CUDNN does not support padding or multiple tops. Using Caffe's own pooling layer.
I1015 04:13:14.503566   246 net.cpp:99] Creating Layer inception_4d/pool
I1015 04:13:14.503572   246 net.cpp:479] inception_4d/pool <- inception_4c/output_inception_4c/output_0_split_3
I1015 04:13:14.503582   246 net.cpp:435] inception_4d/pool -> inception_4d/pool
I1015 04:13:14.503592   246 net.cpp:163] Setting up inception_4d/pool
I1015 04:13:14.503605   246 net.cpp:170] Top shape: 3 608 14 14 (357504)
I1015 04:13:14.503629   246 layer_factory.hpp:74] Creating layer inception_4d/pool_proj
I1015 04:13:14.503641   246 net.cpp:99] Creating Layer inception_4d/pool_proj
I1015 04:13:14.503650   246 net.cpp:479] inception_4d/pool_proj <- inception_4d/pool
I1015 04:13:14.503659   246 net.cpp:435] inception_4d/pool_proj -> inception_4d/pool_proj
I1015 04:13:14.503669   246 net.cpp:163] Setting up inception_4d/pool_proj
I1015 04:13:14.521950   246 net.cpp:170] Top shape: 3 128 14 14 (75264)
I1015 04:13:14.521966   246 layer_factory.hpp:74] Creating layer inception_4d/pool_proj_bn
I1015 04:13:14.521973   246 layer_factory.cpp:192] Layer inception_4d/pool_proj_bn is using CUDNN engine.
I1015 04:13:14.521984   246 net.cpp:99] Creating Layer inception_4d/pool_proj_bn
I1015 04:13:14.521989   246 net.cpp:479] inception_4d/pool_proj_bn <- inception_4d/pool_proj
I1015 04:13:14.522002   246 net.cpp:435] inception_4d/pool_proj_bn -> inception_4d/pool_proj_bn
I1015 04:13:14.522012   246 net.cpp:163] Setting up inception_4d/pool_proj_bn
I1015 04:13:14.522538   246 cudnn_bn_layer.cpp:30] using cuDNN BN engine
I1015 04:13:14.522560   246 net.cpp:170] Top shape: 3 128 14 14 (75264)
I1015 04:13:14.522570   246 layer_factory.hpp:74] Creating layer inception_4d/relu_pool_proj
I1015 04:13:14.522580   246 net.cpp:99] Creating Layer inception_4d/relu_pool_proj
I1015 04:13:14.522588   246 net.cpp:479] inception_4d/relu_pool_proj <- inception_4d/pool_proj_bn
I1015 04:13:14.522596   246 net.cpp:424] inception_4d/relu_pool_proj -> inception_4d/pool_proj_bn (in-place)
I1015 04:13:14.522605   246 net.cpp:163] Setting up inception_4d/relu_pool_proj
I1015 04:13:14.523488   246 net.cpp:170] Top shape: 3 128 14 14 (75264)
I1015 04:13:14.523502   246 layer_factory.hpp:74] Creating layer inception_4d/output
I1015 04:13:14.523514   246 net.cpp:99] Creating Layer inception_4d/output
I1015 04:13:14.523520   246 net.cpp:479] inception_4d/output <- inception_4d/1x1_bn
I1015 04:13:14.523528   246 net.cpp:479] inception_4d/output <- inception_4d/3x3_bn
I1015 04:13:14.523535   246 net.cpp:479] inception_4d/output <- inception_4d/double_3x3_2_bn
I1015 04:13:14.523540   246 net.cpp:479] inception_4d/output <- inception_4d/pool_proj_bn
I1015 04:13:14.523551   246 net.cpp:435] inception_4d/output -> inception_4d/output
I1015 04:13:14.523561   246 net.cpp:163] Setting up inception_4d/output
I1015 04:13:14.523571   246 net.cpp:170] Top shape: 3 608 14 14 (357504)
I1015 04:13:14.523578   246 layer_factory.hpp:74] Creating layer inception_4d/output_inception_4d/output_0_split
I1015 04:13:14.523586   246 net.cpp:99] Creating Layer inception_4d/output_inception_4d/output_0_split
I1015 04:13:14.523591   246 net.cpp:479] inception_4d/output_inception_4d/output_0_split <- inception_4d/output
I1015 04:13:14.523603   246 net.cpp:435] inception_4d/output_inception_4d/output_0_split -> inception_4d/output_inception_4d/output_0_split_0
I1015 04:13:14.523613   246 net.cpp:435] inception_4d/output_inception_4d/output_0_split -> inception_4d/output_inception_4d/output_0_split_1
I1015 04:13:14.523622   246 net.cpp:435] inception_4d/output_inception_4d/output_0_split -> inception_4d/output_inception_4d/output_0_split_2
I1015 04:13:14.523628   246 net.cpp:163] Setting up inception_4d/output_inception_4d/output_0_split
I1015 04:13:14.523638   246 net.cpp:170] Top shape: 3 608 14 14 (357504)
I1015 04:13:14.523644   246 net.cpp:170] Top shape: 3 608 14 14 (357504)
I1015 04:13:14.523649   246 net.cpp:170] Top shape: 3 608 14 14 (357504)
I1015 04:13:14.523656   246 layer_factory.hpp:74] Creating layer inception_4e/3x3_reduce
I1015 04:13:14.523669   246 net.cpp:99] Creating Layer inception_4e/3x3_reduce
I1015 04:13:14.523675   246 net.cpp:479] inception_4e/3x3_reduce <- inception_4d/output_inception_4d/output_0_split_0
I1015 04:13:14.523689   246 net.cpp:435] inception_4e/3x3_reduce -> inception_4e/3x3_reduce
I1015 04:13:14.523697   246 net.cpp:163] Setting up inception_4e/3x3_reduce
I1015 04:13:14.542110   246 net.cpp:170] Top shape: 3 128 14 14 (75264)
I1015 04:13:14.542129   246 layer_factory.hpp:74] Creating layer inception_4e/3x3_reduce_bn
I1015 04:13:14.542151   246 layer_factory.cpp:192] Layer inception_4e/3x3_reduce_bn is using CUDNN engine.
I1015 04:13:14.542165   246 net.cpp:99] Creating Layer inception_4e/3x3_reduce_bn
I1015 04:13:14.542171   246 net.cpp:479] inception_4e/3x3_reduce_bn <- inception_4e/3x3_reduce
I1015 04:13:14.542182   246 net.cpp:435] inception_4e/3x3_reduce_bn -> inception_4e/3x3_reduce_bn
I1015 04:13:14.542191   246 net.cpp:163] Setting up inception_4e/3x3_reduce_bn
I1015 04:13:14.543081   246 cudnn_bn_layer.cpp:30] using cuDNN BN engine
I1015 04:13:14.543104   246 net.cpp:170] Top shape: 3 128 14 14 (75264)
I1015 04:13:14.543113   246 layer_factory.hpp:74] Creating layer inception_4e/relu_3x3_reduce
I1015 04:13:14.543124   246 net.cpp:99] Creating Layer inception_4e/relu_3x3_reduce
I1015 04:13:14.543131   246 net.cpp:479] inception_4e/relu_3x3_reduce <- inception_4e/3x3_reduce_bn
I1015 04:13:14.543139   246 net.cpp:424] inception_4e/relu_3x3_reduce -> inception_4e/3x3_reduce_bn (in-place)
I1015 04:13:14.543148   246 net.cpp:163] Setting up inception_4e/relu_3x3_reduce
I1015 04:13:14.545989   246 net.cpp:170] Top shape: 3 128 14 14 (75264)
I1015 04:13:14.546005   246 layer_factory.hpp:74] Creating layer inception_4e/3x3
I1015 04:13:14.546017   246 net.cpp:99] Creating Layer inception_4e/3x3
I1015 04:13:14.546025   246 net.cpp:479] inception_4e/3x3 <- inception_4e/3x3_reduce_bn
I1015 04:13:14.546036   246 net.cpp:435] inception_4e/3x3 -> inception_4e/3x3
I1015 04:13:14.546047   246 net.cpp:163] Setting up inception_4e/3x3
I1015 04:13:14.552395   246 net.cpp:170] Top shape: 3 192 7 7 (28224)
I1015 04:13:14.552412   246 layer_factory.hpp:74] Creating layer inception_4e/3x3_bn
I1015 04:13:14.552419   246 layer_factory.cpp:192] Layer inception_4e/3x3_bn is using CUDNN engine.
I1015 04:13:14.552429   246 net.cpp:99] Creating Layer inception_4e/3x3_bn
I1015 04:13:14.552434   246 net.cpp:479] inception_4e/3x3_bn <- inception_4e/3x3
I1015 04:13:14.552448   246 net.cpp:435] inception_4e/3x3_bn -> inception_4e/3x3_bn
I1015 04:13:14.552459   246 net.cpp:163] Setting up inception_4e/3x3_bn
I1015 04:13:14.553225   246 cudnn_bn_layer.cpp:30] using cuDNN BN engine
I1015 04:13:14.553244   246 net.cpp:170] Top shape: 3 192 7 7 (28224)
I1015 04:13:14.553256   246 layer_factory.hpp:74] Creating layer inception_4e/relu_3x3
I1015 04:13:14.553268   246 net.cpp:99] Creating Layer inception_4e/relu_3x3
I1015 04:13:14.553273   246 net.cpp:479] inception_4e/relu_3x3 <- inception_4e/3x3_bn
I1015 04:13:14.553285   246 net.cpp:424] inception_4e/relu_3x3 -> inception_4e/3x3_bn (in-place)
I1015 04:13:14.553294   246 net.cpp:163] Setting up inception_4e/relu_3x3
I1015 04:13:14.554044   246 net.cpp:170] Top shape: 3 192 7 7 (28224)
I1015 04:13:14.554059   246 layer_factory.hpp:74] Creating layer inception_4e/double_3x3_reduce
I1015 04:13:14.554072   246 net.cpp:99] Creating Layer inception_4e/double_3x3_reduce
I1015 04:13:14.554077   246 net.cpp:479] inception_4e/double_3x3_reduce <- inception_4d/output_inception_4d/output_0_split_1
I1015 04:13:14.554091   246 net.cpp:435] inception_4e/double_3x3_reduce -> inception_4e/double_3x3_reduce
I1015 04:13:14.554101   246 net.cpp:163] Setting up inception_4e/double_3x3_reduce
I1015 04:13:14.576269   246 net.cpp:170] Top shape: 3 192 14 14 (112896)
I1015 04:13:14.576287   246 layer_factory.hpp:74] Creating layer inception_4e/double_3x3_reduce_bn
I1015 04:13:14.576295   246 layer_factory.cpp:192] Layer inception_4e/double_3x3_reduce_bn is using CUDNN engine.
I1015 04:13:14.576304   246 net.cpp:99] Creating Layer inception_4e/double_3x3_reduce_bn
I1015 04:13:14.576311   246 net.cpp:479] inception_4e/double_3x3_reduce_bn <- inception_4e/double_3x3_reduce
I1015 04:13:14.576324   246 net.cpp:435] inception_4e/double_3x3_reduce_bn -> inception_4e/double_3x3_reduce_bn
I1015 04:13:14.576333   246 net.cpp:163] Setting up inception_4e/double_3x3_reduce_bn
I1015 04:13:14.577662   246 cudnn_bn_layer.cpp:30] using cuDNN BN engine
I1015 04:13:14.577683   246 net.cpp:170] Top shape: 3 192 14 14 (112896)
I1015 04:13:14.577713   246 layer_factory.hpp:74] Creating layer inception_4e/relu_double_3x3_reduce
I1015 04:13:14.577723   246 net.cpp:99] Creating Layer inception_4e/relu_double_3x3_reduce
I1015 04:13:14.577729   246 net.cpp:479] inception_4e/relu_double_3x3_reduce <- inception_4e/double_3x3_reduce_bn
I1015 04:13:14.577740   246 net.cpp:424] inception_4e/relu_double_3x3_reduce -> inception_4e/double_3x3_reduce_bn (in-place)
I1015 04:13:14.577749   246 net.cpp:163] Setting up inception_4e/relu_double_3x3_reduce
I1015 04:13:14.580901   246 net.cpp:170] Top shape: 3 192 14 14 (112896)
I1015 04:13:14.580922   246 layer_factory.hpp:74] Creating layer inception_4e/double_3x3_1
I1015 04:13:14.580936   246 net.cpp:99] Creating Layer inception_4e/double_3x3_1
I1015 04:13:14.580943   246 net.cpp:479] inception_4e/double_3x3_1 <- inception_4e/double_3x3_reduce_bn
I1015 04:13:14.580955   246 net.cpp:435] inception_4e/double_3x3_1 -> inception_4e/double_3x3_1
I1015 04:13:14.580965   246 net.cpp:163] Setting up inception_4e/double_3x3_1
I1015 04:13:14.612766   246 net.cpp:170] Top shape: 3 256 14 14 (150528)
I1015 04:13:14.612782   246 layer_factory.hpp:74] Creating layer inception_4e/double_3x3_1_bn
I1015 04:13:14.612789   246 layer_factory.cpp:192] Layer inception_4e/double_3x3_1_bn is using CUDNN engine.
I1015 04:13:14.612800   246 net.cpp:99] Creating Layer inception_4e/double_3x3_1_bn
I1015 04:13:14.612805   246 net.cpp:479] inception_4e/double_3x3_1_bn <- inception_4e/double_3x3_1
I1015 04:13:14.612816   246 net.cpp:435] inception_4e/double_3x3_1_bn -> inception_4e/double_3x3_1_bn
I1015 04:13:14.612826   246 net.cpp:163] Setting up inception_4e/double_3x3_1_bn
I1015 04:13:14.613608   246 cudnn_bn_layer.cpp:30] using cuDNN BN engine
I1015 04:13:14.613632   246 net.cpp:170] Top shape: 3 256 14 14 (150528)
I1015 04:13:14.613641   246 layer_factory.hpp:74] Creating layer inception_4e/relu_double_3x3_1
I1015 04:13:14.613651   246 net.cpp:99] Creating Layer inception_4e/relu_double_3x3_1
I1015 04:13:14.613658   246 net.cpp:479] inception_4e/relu_double_3x3_1 <- inception_4e/double_3x3_1_bn
I1015 04:13:14.613668   246 net.cpp:424] inception_4e/relu_double_3x3_1 -> inception_4e/double_3x3_1_bn (in-place)
I1015 04:13:14.613678   246 net.cpp:163] Setting up inception_4e/relu_double_3x3_1
I1015 04:13:14.614435   246 net.cpp:170] Top shape: 3 256 14 14 (150528)
I1015 04:13:14.614449   246 layer_factory.hpp:74] Creating layer inception_4e/double_3x3_2
I1015 04:13:14.614462   246 net.cpp:99] Creating Layer inception_4e/double_3x3_2
I1015 04:13:14.614470   246 net.cpp:479] inception_4e/double_3x3_2 <- inception_4e/double_3x3_1_bn
I1015 04:13:14.614482   246 net.cpp:435] inception_4e/double_3x3_2 -> inception_4e/double_3x3_2
I1015 04:13:14.614492   246 net.cpp:163] Setting up inception_4e/double_3x3_2
I1015 04:13:14.623983   246 net.cpp:170] Top shape: 3 256 7 7 (37632)
I1015 04:13:14.624002   246 layer_factory.hpp:74] Creating layer inception_4e/double_3x3_2_bn
I1015 04:13:14.624008   246 layer_factory.cpp:192] Layer inception_4e/double_3x3_2_bn is using CUDNN engine.
I1015 04:13:14.624022   246 net.cpp:99] Creating Layer inception_4e/double_3x3_2_bn
I1015 04:13:14.624027   246 net.cpp:479] inception_4e/double_3x3_2_bn <- inception_4e/double_3x3_2
I1015 04:13:14.624042   246 net.cpp:435] inception_4e/double_3x3_2_bn -> inception_4e/double_3x3_2_bn
I1015 04:13:14.624053   246 net.cpp:163] Setting up inception_4e/double_3x3_2_bn
I1015 04:13:14.624796   246 cudnn_bn_layer.cpp:30] using cuDNN BN engine
I1015 04:13:14.624819   246 net.cpp:170] Top shape: 3 256 7 7 (37632)
I1015 04:13:14.624830   246 layer_factory.hpp:74] Creating layer inception_4e/relu_double_3x3_2
I1015 04:13:14.624838   246 net.cpp:99] Creating Layer inception_4e/relu_double_3x3_2
I1015 04:13:14.624845   246 net.cpp:479] inception_4e/relu_double_3x3_2 <- inception_4e/double_3x3_2_bn
I1015 04:13:14.624856   246 net.cpp:424] inception_4e/relu_double_3x3_2 -> inception_4e/double_3x3_2_bn (in-place)
I1015 04:13:14.624863   246 net.cpp:163] Setting up inception_4e/relu_double_3x3_2
I1015 04:13:14.627727   246 net.cpp:170] Top shape: 3 256 7 7 (37632)
I1015 04:13:14.627743   246 layer_factory.hpp:74] Creating layer inception_4e/pool
I1015 04:13:14.627759   246 net.cpp:99] Creating Layer inception_4e/pool
I1015 04:13:14.627766   246 net.cpp:479] inception_4e/pool <- inception_4d/output_inception_4d/output_0_split_2
I1015 04:13:14.627779   246 net.cpp:435] inception_4e/pool -> inception_4e/pool
I1015 04:13:14.627789   246 net.cpp:163] Setting up inception_4e/pool
I1015 04:13:14.628314   246 net.cpp:170] Top shape: 3 608 7 7 (89376)
I1015 04:13:14.628327   246 layer_factory.hpp:74] Creating layer inception_4e/output
I1015 04:13:14.628336   246 net.cpp:99] Creating Layer inception_4e/output
I1015 04:13:14.628345   246 net.cpp:479] inception_4e/output <- inception_4e/3x3_bn
I1015 04:13:14.628351   246 net.cpp:479] inception_4e/output <- inception_4e/double_3x3_2_bn
I1015 04:13:14.628358   246 net.cpp:479] inception_4e/output <- inception_4e/pool
I1015 04:13:14.628367   246 net.cpp:435] inception_4e/output -> inception_4e/output
I1015 04:13:14.628374   246 net.cpp:163] Setting up inception_4e/output
I1015 04:13:14.628386   246 net.cpp:170] Top shape: 3 1056 7 7 (155232)
I1015 04:13:14.628391   246 layer_factory.hpp:74] Creating layer inception_4e/output_inception_4e/output_0_split
I1015 04:13:14.628402   246 net.cpp:99] Creating Layer inception_4e/output_inception_4e/output_0_split
I1015 04:13:14.628409   246 net.cpp:479] inception_4e/output_inception_4e/output_0_split <- inception_4e/output
I1015 04:13:14.628417   246 net.cpp:435] inception_4e/output_inception_4e/output_0_split -> inception_4e/output_inception_4e/output_0_split_0
I1015 04:13:14.628427   246 net.cpp:435] inception_4e/output_inception_4e/output_0_split -> inception_4e/output_inception_4e/output_0_split_1
I1015 04:13:14.628438   246 net.cpp:435] inception_4e/output_inception_4e/output_0_split -> inception_4e/output_inception_4e/output_0_split_2
I1015 04:13:14.628449   246 net.cpp:435] inception_4e/output_inception_4e/output_0_split -> inception_4e/output_inception_4e/output_0_split_3
I1015 04:13:14.628458   246 net.cpp:163] Setting up inception_4e/output_inception_4e/output_0_split
I1015 04:13:14.628465   246 net.cpp:170] Top shape: 3 1056 7 7 (155232)
I1015 04:13:14.628473   246 net.cpp:170] Top shape: 3 1056 7 7 (155232)
I1015 04:13:14.628479   246 net.cpp:170] Top shape: 3 1056 7 7 (155232)
I1015 04:13:14.628484   246 net.cpp:170] Top shape: 3 1056 7 7 (155232)
I1015 04:13:14.628492   246 layer_factory.hpp:74] Creating layer inception_5a/1x1
I1015 04:13:14.628506   246 net.cpp:99] Creating Layer inception_5a/1x1
I1015 04:13:14.628513   246 net.cpp:479] inception_5a/1x1 <- inception_4e/output_inception_4e/output_0_split_0
I1015 04:13:14.628525   246 net.cpp:435] inception_5a/1x1 -> inception_5a/1x1
I1015 04:13:14.628535   246 net.cpp:163] Setting up inception_5a/1x1
I1015 04:13:14.666083   246 net.cpp:170] Top shape: 3 352 7 7 (51744)
I1015 04:13:14.666101   246 layer_factory.hpp:74] Creating layer inception_5a/1x1_bn
I1015 04:13:14.666110   246 layer_factory.cpp:192] Layer inception_5a/1x1_bn is using CUDNN engine.
I1015 04:13:14.666121   246 net.cpp:99] Creating Layer inception_5a/1x1_bn
I1015 04:13:14.666128   246 net.cpp:479] inception_5a/1x1_bn <- inception_5a/1x1
I1015 04:13:14.666138   246 net.cpp:435] inception_5a/1x1_bn -> inception_5a/1x1_bn
I1015 04:13:14.666146   246 net.cpp:163] Setting up inception_5a/1x1_bn
I1015 04:13:14.667451   246 cudnn_bn_layer.cpp:30] using cuDNN BN engine
I1015 04:13:14.667474   246 net.cpp:170] Top shape: 3 352 7 7 (51744)
I1015 04:13:14.667482   246 layer_factory.hpp:74] Creating layer inception_5a/relu_1x1
I1015 04:13:14.667495   246 net.cpp:99] Creating Layer inception_5a/relu_1x1
I1015 04:13:14.667500   246 net.cpp:479] inception_5a/relu_1x1 <- inception_5a/1x1_bn
I1015 04:13:14.667511   246 net.cpp:424] inception_5a/relu_1x1 -> inception_5a/1x1_bn (in-place)
I1015 04:13:14.667520   246 net.cpp:163] Setting up inception_5a/relu_1x1
I1015 04:13:14.668040   246 net.cpp:170] Top shape: 3 352 7 7 (51744)
I1015 04:13:14.668067   246 layer_factory.hpp:74] Creating layer inception_5a/3x3_reduce
I1015 04:13:14.668081   246 net.cpp:99] Creating Layer inception_5a/3x3_reduce
I1015 04:13:14.668087   246 net.cpp:479] inception_5a/3x3_reduce <- inception_4e/output_inception_4e/output_0_split_1
I1015 04:13:14.668104   246 net.cpp:435] inception_5a/3x3_reduce -> inception_5a/3x3_reduce
I1015 04:13:14.668118   246 net.cpp:163] Setting up inception_5a/3x3_reduce
I1015 04:13:14.700080   246 net.cpp:170] Top shape: 3 192 7 7 (28224)
I1015 04:13:14.700098   246 layer_factory.hpp:74] Creating layer inception_5a/3x3_reduce_bn
I1015 04:13:14.700105   246 layer_factory.cpp:192] Layer inception_5a/3x3_reduce_bn is using CUDNN engine.
I1015 04:13:14.700119   246 net.cpp:99] Creating Layer inception_5a/3x3_reduce_bn
I1015 04:13:14.700124   246 net.cpp:479] inception_5a/3x3_reduce_bn <- inception_5a/3x3_reduce
I1015 04:13:14.700134   246 net.cpp:435] inception_5a/3x3_reduce_bn -> inception_5a/3x3_reduce_bn
I1015 04:13:14.700143   246 net.cpp:163] Setting up inception_5a/3x3_reduce_bn
I1015 04:13:14.706652   246 cudnn_bn_layer.cpp:30] using cuDNN BN engine
I1015 04:13:14.706676   246 net.cpp:170] Top shape: 3 192 7 7 (28224)
I1015 04:13:14.706686   246 layer_factory.hpp:74] Creating layer inception_5a/relu_3x3_reduce
I1015 04:13:14.706696   246 net.cpp:99] Creating Layer inception_5a/relu_3x3_reduce
I1015 04:13:14.706704   246 net.cpp:479] inception_5a/relu_3x3_reduce <- inception_5a/3x3_reduce_bn
I1015 04:13:14.706712   246 net.cpp:424] inception_5a/relu_3x3_reduce -> inception_5a/3x3_reduce_bn (in-place)
I1015 04:13:14.706722   246 net.cpp:163] Setting up inception_5a/relu_3x3_reduce
I1015 04:13:14.707227   246 net.cpp:170] Top shape: 3 192 7 7 (28224)
I1015 04:13:14.707239   246 layer_factory.hpp:74] Creating layer inception_5a/3x3
I1015 04:13:14.707252   246 net.cpp:99] Creating Layer inception_5a/3x3
I1015 04:13:14.707259   246 net.cpp:479] inception_5a/3x3 <- inception_5a/3x3_reduce_bn
I1015 04:13:14.707271   246 net.cpp:435] inception_5a/3x3 -> inception_5a/3x3
I1015 04:13:14.707283   246 net.cpp:163] Setting up inception_5a/3x3
I1015 04:13:14.745198   246 net.cpp:170] Top shape: 3 320 7 7 (47040)
I1015 04:13:14.745216   246 layer_factory.hpp:74] Creating layer inception_5a/3x3_bn
I1015 04:13:14.745221   246 layer_factory.cpp:192] Layer inception_5a/3x3_bn is using CUDNN engine.
I1015 04:13:14.745234   246 net.cpp:99] Creating Layer inception_5a/3x3_bn
I1015 04:13:14.745242   246 net.cpp:479] inception_5a/3x3_bn <- inception_5a/3x3
I1015 04:13:14.745251   246 net.cpp:435] inception_5a/3x3_bn -> inception_5a/3x3_bn
I1015 04:13:14.745262   246 net.cpp:163] Setting up inception_5a/3x3_bn
I1015 04:13:14.746040   246 cudnn_bn_layer.cpp:30] using cuDNN BN engine
I1015 04:13:14.746062   246 net.cpp:170] Top shape: 3 320 7 7 (47040)
I1015 04:13:14.746075   246 layer_factory.hpp:74] Creating layer inception_5a/relu_3x3
I1015 04:13:14.746083   246 net.cpp:99] Creating Layer inception_5a/relu_3x3
I1015 04:13:14.746090   246 net.cpp:479] inception_5a/relu_3x3 <- inception_5a/3x3_bn
I1015 04:13:14.746101   246 net.cpp:424] inception_5a/relu_3x3 -> inception_5a/3x3_bn (in-place)
I1015 04:13:14.746110   246 net.cpp:163] Setting up inception_5a/relu_3x3
I1015 04:13:14.746603   246 net.cpp:170] Top shape: 3 320 7 7 (47040)
I1015 04:13:14.746614   246 layer_factory.hpp:74] Creating layer inception_5a/double_3x3_reduce
I1015 04:13:14.746626   246 net.cpp:99] Creating Layer inception_5a/double_3x3_reduce
I1015 04:13:14.746634   246 net.cpp:479] inception_5a/double_3x3_reduce <- inception_4e/output_inception_4e/output_0_split_2
I1015 04:13:14.746644   246 net.cpp:435] inception_5a/double_3x3_reduce -> inception_5a/double_3x3_reduce
I1015 04:13:14.746656   246 net.cpp:163] Setting up inception_5a/double_3x3_reduce
I1015 04:13:14.769075   246 net.cpp:170] Top shape: 3 160 7 7 (23520)
I1015 04:13:14.769094   246 layer_factory.hpp:74] Creating layer inception_5a/double_3x3_reduce_bn
I1015 04:13:14.769101   246 layer_factory.cpp:192] Layer inception_5a/double_3x3_reduce_bn is using CUDNN engine.
I1015 04:13:14.769129   246 net.cpp:99] Creating Layer inception_5a/double_3x3_reduce_bn
I1015 04:13:14.769137   246 net.cpp:479] inception_5a/double_3x3_reduce_bn <- inception_5a/double_3x3_reduce
I1015 04:13:14.769147   246 net.cpp:435] inception_5a/double_3x3_reduce_bn -> inception_5a/double_3x3_reduce_bn
I1015 04:13:14.769158   246 net.cpp:163] Setting up inception_5a/double_3x3_reduce_bn
I1015 04:13:14.769678   246 cudnn_bn_layer.cpp:30] using cuDNN BN engine
I1015 04:13:14.769701   246 net.cpp:170] Top shape: 3 160 7 7 (23520)
I1015 04:13:14.769711   246 layer_factory.hpp:74] Creating layer inception_5a/relu_double_3x3_reduce
I1015 04:13:14.769722   246 net.cpp:99] Creating Layer inception_5a/relu_double_3x3_reduce
I1015 04:13:14.769731   246 net.cpp:479] inception_5a/relu_double_3x3_reduce <- inception_5a/double_3x3_reduce_bn
I1015 04:13:14.769737   246 net.cpp:424] inception_5a/relu_double_3x3_reduce -> inception_5a/double_3x3_reduce_bn (in-place)
I1015 04:13:14.769747   246 net.cpp:163] Setting up inception_5a/relu_double_3x3_reduce
I1015 04:13:14.777225   246 net.cpp:170] Top shape: 3 160 7 7 (23520)
I1015 04:13:14.777240   246 layer_factory.hpp:74] Creating layer inception_5a/double_3x3_1
I1015 04:13:14.777251   246 net.cpp:99] Creating Layer inception_5a/double_3x3_1
I1015 04:13:14.777259   246 net.cpp:479] inception_5a/double_3x3_1 <- inception_5a/double_3x3_reduce_bn
I1015 04:13:14.777271   246 net.cpp:435] inception_5a/double_3x3_1 -> inception_5a/double_3x3_1
I1015 04:13:14.777281   246 net.cpp:163] Setting up inception_5a/double_3x3_1
I1015 04:13:14.801204   246 net.cpp:170] Top shape: 3 224 7 7 (32928)
I1015 04:13:14.801223   246 layer_factory.hpp:74] Creating layer inception_5a/double_3x3_1_bn
I1015 04:13:14.801229   246 layer_factory.cpp:192] Layer inception_5a/double_3x3_1_bn is using CUDNN engine.
I1015 04:13:14.801239   246 net.cpp:99] Creating Layer inception_5a/double_3x3_1_bn
I1015 04:13:14.801246   246 net.cpp:479] inception_5a/double_3x3_1_bn <- inception_5a/double_3x3_1
I1015 04:13:14.801255   246 net.cpp:435] inception_5a/double_3x3_1_bn -> inception_5a/double_3x3_1_bn
I1015 04:13:14.801265   246 net.cpp:163] Setting up inception_5a/double_3x3_1_bn
I1015 04:13:14.801795   246 cudnn_bn_layer.cpp:30] using cuDNN BN engine
I1015 04:13:14.801815   246 net.cpp:170] Top shape: 3 224 7 7 (32928)
I1015 04:13:14.801826   246 layer_factory.hpp:74] Creating layer inception_5a/relu_double_3x3_1
I1015 04:13:14.801833   246 net.cpp:99] Creating Layer inception_5a/relu_double_3x3_1
I1015 04:13:14.801841   246 net.cpp:479] inception_5a/relu_double_3x3_1 <- inception_5a/double_3x3_1_bn
I1015 04:13:14.801851   246 net.cpp:424] inception_5a/relu_double_3x3_1 -> inception_5a/double_3x3_1_bn (in-place)
I1015 04:13:14.801859   246 net.cpp:163] Setting up inception_5a/relu_double_3x3_1
I1015 04:13:14.802623   246 net.cpp:170] Top shape: 3 224 7 7 (32928)
I1015 04:13:14.802637   246 layer_factory.hpp:74] Creating layer inception_5a/double_3x3_2
I1015 04:13:14.802649   246 net.cpp:99] Creating Layer inception_5a/double_3x3_2
I1015 04:13:14.802657   246 net.cpp:479] inception_5a/double_3x3_2 <- inception_5a/double_3x3_1_bn
I1015 04:13:14.802665   246 net.cpp:435] inception_5a/double_3x3_2 -> inception_5a/double_3x3_2
I1015 04:13:14.802675   246 net.cpp:163] Setting up inception_5a/double_3x3_2
I1015 04:13:14.833746   246 net.cpp:170] Top shape: 3 224 7 7 (32928)
I1015 04:13:14.833763   246 layer_factory.hpp:74] Creating layer inception_5a/double_3x3_2_bn
I1015 04:13:14.833770   246 layer_factory.cpp:192] Layer inception_5a/double_3x3_2_bn is using CUDNN engine.
I1015 04:13:14.833783   246 net.cpp:99] Creating Layer inception_5a/double_3x3_2_bn
I1015 04:13:14.833791   246 net.cpp:479] inception_5a/double_3x3_2_bn <- inception_5a/double_3x3_2
I1015 04:13:14.833801   246 net.cpp:435] inception_5a/double_3x3_2_bn -> inception_5a/double_3x3_2_bn
I1015 04:13:14.833809   246 net.cpp:163] Setting up inception_5a/double_3x3_2_bn
I1015 04:13:14.834338   246 cudnn_bn_layer.cpp:30] using cuDNN BN engine
I1015 04:13:14.834374   246 net.cpp:170] Top shape: 3 224 7 7 (32928)
I1015 04:13:14.834385   246 layer_factory.hpp:74] Creating layer inception_5a/relu_double_3x3_2
I1015 04:13:14.834396   246 net.cpp:99] Creating Layer inception_5a/relu_double_3x3_2
I1015 04:13:14.834403   246 net.cpp:479] inception_5a/relu_double_3x3_2 <- inception_5a/double_3x3_2_bn
I1015 04:13:14.834412   246 net.cpp:424] inception_5a/relu_double_3x3_2 -> inception_5a/double_3x3_2_bn (in-place)
I1015 04:13:14.834419   246 net.cpp:163] Setting up inception_5a/relu_double_3x3_2
I1015 04:13:14.837257   246 net.cpp:170] Top shape: 3 224 7 7 (32928)
I1015 04:13:14.837275   246 layer_factory.hpp:74] Creating layer inception_5a/pool
I1015 04:13:14.837281   246 layer_factory.cpp:69] CUDNN does not support padding or multiple tops. Using Caffe's own pooling layer.
I1015 04:13:14.837292   246 net.cpp:99] Creating Layer inception_5a/pool
I1015 04:13:14.837301   246 net.cpp:479] inception_5a/pool <- inception_4e/output_inception_4e/output_0_split_3
I1015 04:13:14.837311   246 net.cpp:435] inception_5a/pool -> inception_5a/pool
I1015 04:13:14.837319   246 net.cpp:163] Setting up inception_5a/pool
I1015 04:13:14.837329   246 net.cpp:170] Top shape: 3 1056 7 7 (155232)
I1015 04:13:14.837335   246 layer_factory.hpp:74] Creating layer inception_5a/pool_proj
I1015 04:13:14.837347   246 net.cpp:99] Creating Layer inception_5a/pool_proj
I1015 04:13:14.837354   246 net.cpp:479] inception_5a/pool_proj <- inception_5a/pool
I1015 04:13:14.837368   246 net.cpp:435] inception_5a/pool_proj -> inception_5a/pool_proj
I1015 04:13:14.837374   246 net.cpp:163] Setting up inception_5a/pool_proj
I1015 04:13:14.861886   246 net.cpp:170] Top shape: 3 128 7 7 (18816)
I1015 04:13:14.861904   246 layer_factory.hpp:74] Creating layer inception_5a/pool_proj_bn
I1015 04:13:14.861915   246 layer_factory.cpp:192] Layer inception_5a/pool_proj_bn is using CUDNN engine.
I1015 04:13:14.861928   246 net.cpp:99] Creating Layer inception_5a/pool_proj_bn
I1015 04:13:14.861935   246 net.cpp:479] inception_5a/pool_proj_bn <- inception_5a/pool_proj
I1015 04:13:14.861945   246 net.cpp:435] inception_5a/pool_proj_bn -> inception_5a/pool_proj_bn
I1015 04:13:14.861954   246 net.cpp:163] Setting up inception_5a/pool_proj_bn
I1015 04:13:14.862473   246 cudnn_bn_layer.cpp:30] using cuDNN BN engine
I1015 04:13:14.862493   246 net.cpp:170] Top shape: 3 128 7 7 (18816)
I1015 04:13:14.862501   246 layer_factory.hpp:74] Creating layer inception_5a/relu_pool_proj
I1015 04:13:14.862514   246 net.cpp:99] Creating Layer inception_5a/relu_pool_proj
I1015 04:13:14.862519   246 net.cpp:479] inception_5a/relu_pool_proj <- inception_5a/pool_proj_bn
I1015 04:13:14.862529   246 net.cpp:424] inception_5a/relu_pool_proj -> inception_5a/pool_proj_bn (in-place)
I1015 04:13:14.862538   246 net.cpp:163] Setting up inception_5a/relu_pool_proj
I1015 04:13:14.864329   246 net.cpp:170] Top shape: 3 128 7 7 (18816)
I1015 04:13:14.864346   246 layer_factory.hpp:74] Creating layer inception_5a/output
I1015 04:13:14.864357   246 net.cpp:99] Creating Layer inception_5a/output
I1015 04:13:14.864364   246 net.cpp:479] inception_5a/output <- inception_5a/1x1_bn
I1015 04:13:14.864372   246 net.cpp:479] inception_5a/output <- inception_5a/3x3_bn
I1015 04:13:14.864377   246 net.cpp:479] inception_5a/output <- inception_5a/double_3x3_2_bn
I1015 04:13:14.864385   246 net.cpp:479] inception_5a/output <- inception_5a/pool_proj_bn
I1015 04:13:14.864395   246 net.cpp:435] inception_5a/output -> inception_5a/output
I1015 04:13:14.864405   246 net.cpp:163] Setting up inception_5a/output
I1015 04:13:14.864415   246 net.cpp:170] Top shape: 3 1024 7 7 (150528)
I1015 04:13:14.864420   246 layer_factory.hpp:74] Creating layer inception_5a/output_inception_5a/output_0_split
I1015 04:13:14.864431   246 net.cpp:99] Creating Layer inception_5a/output_inception_5a/output_0_split
I1015 04:13:14.864437   246 net.cpp:479] inception_5a/output_inception_5a/output_0_split <- inception_5a/output
I1015 04:13:14.864449   246 net.cpp:435] inception_5a/output_inception_5a/output_0_split -> inception_5a/output_inception_5a/output_0_split_0
I1015 04:13:14.864473   246 net.cpp:435] inception_5a/output_inception_5a/output_0_split -> inception_5a/output_inception_5a/output_0_split_1
I1015 04:13:14.864485   246 net.cpp:435] inception_5a/output_inception_5a/output_0_split -> inception_5a/output_inception_5a/output_0_split_2
I1015 04:13:14.864496   246 net.cpp:435] inception_5a/output_inception_5a/output_0_split -> inception_5a/output_inception_5a/output_0_split_3
I1015 04:13:14.864501   246 net.cpp:163] Setting up inception_5a/output_inception_5a/output_0_split
I1015 04:13:14.864513   246 net.cpp:170] Top shape: 3 1024 7 7 (150528)
I1015 04:13:14.864519   246 net.cpp:170] Top shape: 3 1024 7 7 (150528)
I1015 04:13:14.864526   246 net.cpp:170] Top shape: 3 1024 7 7 (150528)
I1015 04:13:14.864534   246 net.cpp:170] Top shape: 3 1024 7 7 (150528)
I1015 04:13:14.864538   246 layer_factory.hpp:74] Creating layer inception_5b/1x1
I1015 04:13:14.864552   246 net.cpp:99] Creating Layer inception_5b/1x1
I1015 04:13:14.864558   246 net.cpp:479] inception_5b/1x1 <- inception_5a/output_inception_5a/output_0_split_0
I1015 04:13:14.864567   246 net.cpp:435] inception_5b/1x1 -> inception_5b/1x1
I1015 04:13:14.864578   246 net.cpp:163] Setting up inception_5b/1x1
I1015 04:13:14.903062   246 net.cpp:170] Top shape: 3 352 7 7 (51744)
I1015 04:13:14.903103   246 layer_factory.hpp:74] Creating layer inception_5b/1x1_bn
I1015 04:13:14.903111   246 layer_factory.cpp:192] Layer inception_5b/1x1_bn is using CUDNN engine.
I1015 04:13:14.903124   246 net.cpp:99] Creating Layer inception_5b/1x1_bn
I1015 04:13:14.903143   246 net.cpp:479] inception_5b/1x1_bn <- inception_5b/1x1
I1015 04:13:14.903156   246 net.cpp:435] inception_5b/1x1_bn -> inception_5b/1x1_bn
I1015 04:13:14.903174   246 net.cpp:163] Setting up inception_5b/1x1_bn
I1015 04:13:14.904875   246 cudnn_bn_layer.cpp:30] using cuDNN BN engine
I1015 04:13:14.904899   246 net.cpp:170] Top shape: 3 352 7 7 (51744)
I1015 04:13:14.904909   246 layer_factory.hpp:74] Creating layer inception_5b/relu_1x1
I1015 04:13:14.904930   246 net.cpp:99] Creating Layer inception_5b/relu_1x1
I1015 04:13:14.904937   246 net.cpp:479] inception_5b/relu_1x1 <- inception_5b/1x1_bn
I1015 04:13:14.904945   246 net.cpp:424] inception_5b/relu_1x1 -> inception_5b/1x1_bn (in-place)
I1015 04:13:14.904955   246 net.cpp:163] Setting up inception_5b/relu_1x1
I1015 04:13:14.918084   246 net.cpp:170] Top shape: 3 352 7 7 (51744)
I1015 04:13:14.918102   246 layer_factory.hpp:74] Creating layer inception_5b/3x3_reduce
I1015 04:13:14.918114   246 net.cpp:99] Creating Layer inception_5b/3x3_reduce
I1015 04:13:14.918123   246 net.cpp:479] inception_5b/3x3_reduce <- inception_5a/output_inception_5a/output_0_split_1
I1015 04:13:14.918140   246 net.cpp:435] inception_5b/3x3_reduce -> inception_5b/3x3_reduce
I1015 04:13:14.918152   246 net.cpp:163] Setting up inception_5b/3x3_reduce
I1015 04:13:14.945303   246 net.cpp:170] Top shape: 3 192 7 7 (28224)
I1015 04:13:14.945320   246 layer_factory.hpp:74] Creating layer inception_5b/3x3_reduce_bn
I1015 04:13:14.945327   246 layer_factory.cpp:192] Layer inception_5b/3x3_reduce_bn is using CUDNN engine.
I1015 04:13:14.945338   246 net.cpp:99] Creating Layer inception_5b/3x3_reduce_bn
I1015 04:13:14.945343   246 net.cpp:479] inception_5b/3x3_reduce_bn <- inception_5b/3x3_reduce
I1015 04:13:14.945353   246 net.cpp:435] inception_5b/3x3_reduce_bn -> inception_5b/3x3_reduce_bn
I1015 04:13:14.945363   246 net.cpp:163] Setting up inception_5b/3x3_reduce_bn
I1015 04:13:14.946702   246 cudnn_bn_layer.cpp:30] using cuDNN BN engine
I1015 04:13:14.946725   246 net.cpp:170] Top shape: 3 192 7 7 (28224)
I1015 04:13:14.946736   246 layer_factory.hpp:74] Creating layer inception_5b/relu_3x3_reduce
I1015 04:13:14.946746   246 net.cpp:99] Creating Layer inception_5b/relu_3x3_reduce
I1015 04:13:14.946754   246 net.cpp:479] inception_5b/relu_3x3_reduce <- inception_5b/3x3_reduce_bn
I1015 04:13:14.946764   246 net.cpp:424] inception_5b/relu_3x3_reduce -> inception_5b/3x3_reduce_bn (in-place)
I1015 04:13:14.946789   246 net.cpp:163] Setting up inception_5b/relu_3x3_reduce
I1015 04:13:14.948801   246 net.cpp:170] Top shape: 3 192 7 7 (28224)
I1015 04:13:14.948815   246 layer_factory.hpp:74] Creating layer inception_5b/3x3
I1015 04:13:14.948830   246 net.cpp:99] Creating Layer inception_5b/3x3
I1015 04:13:14.948837   246 net.cpp:479] inception_5b/3x3 <- inception_5b/3x3_reduce_bn
I1015 04:13:14.948846   246 net.cpp:435] inception_5b/3x3 -> inception_5b/3x3
I1015 04:13:14.948856   246 net.cpp:163] Setting up inception_5b/3x3
I1015 04:13:14.984203   246 net.cpp:170] Top shape: 3 320 7 7 (47040)
I1015 04:13:14.984220   246 layer_factory.hpp:74] Creating layer inception_5b/3x3_bn
I1015 04:13:14.984226   246 layer_factory.cpp:192] Layer inception_5b/3x3_bn is using CUDNN engine.
I1015 04:13:14.984236   246 net.cpp:99] Creating Layer inception_5b/3x3_bn
I1015 04:13:14.984243   246 net.cpp:479] inception_5b/3x3_bn <- inception_5b/3x3
I1015 04:13:14.984261   246 net.cpp:435] inception_5b/3x3_bn -> inception_5b/3x3_bn
I1015 04:13:14.984272   246 net.cpp:163] Setting up inception_5b/3x3_bn
I1015 04:13:14.985138   246 cudnn_bn_layer.cpp:30] using cuDNN BN engine
I1015 04:13:14.985163   246 net.cpp:170] Top shape: 3 320 7 7 (47040)
I1015 04:13:14.985173   246 layer_factory.hpp:74] Creating layer inception_5b/relu_3x3
I1015 04:13:14.985184   246 net.cpp:99] Creating Layer inception_5b/relu_3x3
I1015 04:13:14.985193   246 net.cpp:479] inception_5b/relu_3x3 <- inception_5b/3x3_bn
I1015 04:13:14.985200   246 net.cpp:424] inception_5b/relu_3x3 -> inception_5b/3x3_bn (in-place)
I1015 04:13:14.985208   246 net.cpp:163] Setting up inception_5b/relu_3x3
I1015 04:13:14.988294   246 net.cpp:170] Top shape: 3 320 7 7 (47040)
I1015 04:13:14.988312   246 layer_factory.hpp:74] Creating layer inception_5b/double_3x3_reduce
I1015 04:13:14.988322   246 net.cpp:99] Creating Layer inception_5b/double_3x3_reduce
I1015 04:13:14.988328   246 net.cpp:479] inception_5b/double_3x3_reduce <- inception_5a/output_inception_5a/output_0_split_2
I1015 04:13:14.988343   246 net.cpp:435] inception_5b/double_3x3_reduce -> inception_5b/double_3x3_reduce
I1015 04:13:14.988354   246 net.cpp:163] Setting up inception_5b/double_3x3_reduce
I1015 04:13:15.016990   246 net.cpp:170] Top shape: 3 192 7 7 (28224)
I1015 04:13:15.017007   246 layer_factory.hpp:74] Creating layer inception_5b/double_3x3_reduce_bn
I1015 04:13:15.017014   246 layer_factory.cpp:192] Layer inception_5b/double_3x3_reduce_bn is using CUDNN engine.
I1015 04:13:15.017027   246 net.cpp:99] Creating Layer inception_5b/double_3x3_reduce_bn
I1015 04:13:15.017033   246 net.cpp:479] inception_5b/double_3x3_reduce_bn <- inception_5b/double_3x3_reduce
I1015 04:13:15.017045   246 net.cpp:435] inception_5b/double_3x3_reduce_bn -> inception_5b/double_3x3_reduce_bn
I1015 04:13:15.017053   246 net.cpp:163] Setting up inception_5b/double_3x3_reduce_bn
I1015 04:13:15.018996   246 cudnn_bn_layer.cpp:30] using cuDNN BN engine
I1015 04:13:15.019021   246 net.cpp:170] Top shape: 3 192 7 7 (28224)
I1015 04:13:15.019030   246 layer_factory.hpp:74] Creating layer inception_5b/relu_double_3x3_reduce
I1015 04:13:15.019042   246 net.cpp:99] Creating Layer inception_5b/relu_double_3x3_reduce
I1015 04:13:15.019048   246 net.cpp:479] inception_5b/relu_double_3x3_reduce <- inception_5b/double_3x3_reduce_bn
I1015 04:13:15.019064   246 net.cpp:424] inception_5b/relu_double_3x3_reduce -> inception_5b/double_3x3_reduce_bn (in-place)
I1015 04:13:15.019073   246 net.cpp:163] Setting up inception_5b/relu_double_3x3_reduce
I1015 04:13:15.021075   246 net.cpp:170] Top shape: 3 192 7 7 (28224)
I1015 04:13:15.021091   246 layer_factory.hpp:74] Creating layer inception_5b/double_3x3_1
I1015 04:13:15.021106   246 net.cpp:99] Creating Layer inception_5b/double_3x3_1
I1015 04:13:15.021114   246 net.cpp:479] inception_5b/double_3x3_1 <- inception_5b/double_3x3_reduce_bn
I1015 04:13:15.021126   246 net.cpp:435] inception_5b/double_3x3_1 -> inception_5b/double_3x3_1
I1015 04:13:15.021134   246 net.cpp:163] Setting up inception_5b/double_3x3_1
I1015 04:13:15.050325   246 net.cpp:170] Top shape: 3 224 7 7 (32928)
I1015 04:13:15.050344   246 layer_factory.hpp:74] Creating layer inception_5b/double_3x3_1_bn
I1015 04:13:15.050351   246 layer_factory.cpp:192] Layer inception_5b/double_3x3_1_bn is using CUDNN engine.
I1015 04:13:15.050360   246 net.cpp:99] Creating Layer inception_5b/double_3x3_1_bn
I1015 04:13:15.050369   246 net.cpp:479] inception_5b/double_3x3_1_bn <- inception_5b/double_3x3_1
I1015 04:13:15.050377   246 net.cpp:435] inception_5b/double_3x3_1_bn -> inception_5b/double_3x3_1_bn
I1015 04:13:15.050387   246 net.cpp:163] Setting up inception_5b/double_3x3_1_bn
I1015 04:13:15.051200   246 cudnn_bn_layer.cpp:30] using cuDNN BN engine
I1015 04:13:15.051221   246 net.cpp:170] Top shape: 3 224 7 7 (32928)
I1015 04:13:15.051234   246 layer_factory.hpp:74] Creating layer inception_5b/relu_double_3x3_1
I1015 04:13:15.051244   246 net.cpp:99] Creating Layer inception_5b/relu_double_3x3_1
I1015 04:13:15.051251   246 net.cpp:479] inception_5b/relu_double_3x3_1 <- inception_5b/double_3x3_1_bn
I1015 04:13:15.051262   246 net.cpp:424] inception_5b/relu_double_3x3_1 -> inception_5b/double_3x3_1_bn (in-place)
I1015 04:13:15.051271   246 net.cpp:163] Setting up inception_5b/relu_double_3x3_1
I1015 04:13:15.055248   246 net.cpp:170] Top shape: 3 224 7 7 (32928)
I1015 04:13:15.055263   246 layer_factory.hpp:74] Creating layer inception_5b/double_3x3_2
I1015 04:13:15.055276   246 net.cpp:99] Creating Layer inception_5b/double_3x3_2
I1015 04:13:15.055284   246 net.cpp:479] inception_5b/double_3x3_2 <- inception_5b/double_3x3_1_bn
I1015 04:13:15.055300   246 net.cpp:435] inception_5b/double_3x3_2 -> inception_5b/double_3x3_2
I1015 04:13:15.055312   246 net.cpp:163] Setting up inception_5b/double_3x3_2
I1015 04:13:15.088538   246 net.cpp:170] Top shape: 3 224 7 7 (32928)
I1015 04:13:15.088557   246 layer_factory.hpp:74] Creating layer inception_5b/double_3x3_2_bn
I1015 04:13:15.088562   246 layer_factory.cpp:192] Layer inception_5b/double_3x3_2_bn is using CUDNN engine.
I1015 04:13:15.088572   246 net.cpp:99] Creating Layer inception_5b/double_3x3_2_bn
I1015 04:13:15.088579   246 net.cpp:479] inception_5b/double_3x3_2_bn <- inception_5b/double_3x3_2
I1015 04:13:15.088587   246 net.cpp:435] inception_5b/double_3x3_2_bn -> inception_5b/double_3x3_2_bn
I1015 04:13:15.088598   246 net.cpp:163] Setting up inception_5b/double_3x3_2_bn
I1015 04:13:15.091635   246 cudnn_bn_layer.cpp:30] using cuDNN BN engine
I1015 04:13:15.091693   246 net.cpp:170] Top shape: 3 224 7 7 (32928)
I1015 04:13:15.091723   246 layer_factory.hpp:74] Creating layer inception_5b/relu_double_3x3_2
I1015 04:13:15.091747   246 net.cpp:99] Creating Layer inception_5b/relu_double_3x3_2
I1015 04:13:15.091761   246 net.cpp:479] inception_5b/relu_double_3x3_2 <- inception_5b/double_3x3_2_bn
I1015 04:13:15.091791   246 net.cpp:424] inception_5b/relu_double_3x3_2 -> inception_5b/double_3x3_2_bn (in-place)
I1015 04:13:15.091816   246 net.cpp:163] Setting up inception_5b/relu_double_3x3_2
I1015 04:13:15.094576   246 net.cpp:170] Top shape: 3 224 7 7 (32928)
I1015 04:13:15.094610   246 layer_factory.hpp:74] Creating layer inception_5b/pool
I1015 04:13:15.094630   246 layer_factory.cpp:69] CUDNN does not support padding or multiple tops. Using Caffe's own pooling layer.
I1015 04:13:15.094655   246 net.cpp:99] Creating Layer inception_5b/pool
I1015 04:13:15.094676   246 net.cpp:479] inception_5b/pool <- inception_5a/output_inception_5a/output_0_split_3
I1015 04:13:15.094699   246 net.cpp:435] inception_5b/pool -> inception_5b/pool
I1015 04:13:15.094727   246 net.cpp:163] Setting up inception_5b/pool
I1015 04:13:15.094754   246 net.cpp:170] Top shape: 3 1024 7 7 (150528)
I1015 04:13:15.094771   246 layer_factory.hpp:74] Creating layer inception_5b/pool_proj
I1015 04:13:15.094803   246 net.cpp:99] Creating Layer inception_5b/pool_proj
I1015 04:13:15.094817   246 net.cpp:479] inception_5b/pool_proj <- inception_5b/pool
I1015 04:13:15.094861   246 net.cpp:435] inception_5b/pool_proj -> inception_5b/pool_proj
I1015 04:13:15.094933   246 net.cpp:163] Setting up inception_5b/pool_proj
I1015 04:13:15.131906   246 net.cpp:170] Top shape: 3 128 7 7 (18816)
I1015 04:13:15.131963   246 layer_factory.hpp:74] Creating layer inception_5b/pool_proj_bn
I1015 04:13:15.131980   246 layer_factory.cpp:192] Layer inception_5b/pool_proj_bn is using CUDNN engine.
I1015 04:13:15.132007   246 net.cpp:99] Creating Layer inception_5b/pool_proj_bn
I1015 04:13:15.132030   246 net.cpp:479] inception_5b/pool_proj_bn <- inception_5b/pool_proj
I1015 04:13:15.132055   246 net.cpp:435] inception_5b/pool_proj_bn -> inception_5b/pool_proj_bn
I1015 04:13:15.132081   246 net.cpp:163] Setting up inception_5b/pool_proj_bn
I1015 04:13:15.135326   246 cudnn_bn_layer.cpp:30] using cuDNN BN engine
I1015 04:13:15.135376   246 net.cpp:170] Top shape: 3 128 7 7 (18816)
I1015 04:13:15.135424   246 layer_factory.hpp:74] Creating layer inception_5b/relu_pool_proj
I1015 04:13:15.135444   246 net.cpp:99] Creating Layer inception_5b/relu_pool_proj
I1015 04:13:15.135463   246 net.cpp:479] inception_5b/relu_pool_proj <- inception_5b/pool_proj_bn
I1015 04:13:15.135483   246 net.cpp:424] inception_5b/relu_pool_proj -> inception_5b/pool_proj_bn (in-place)
I1015 04:13:15.135504   246 net.cpp:163] Setting up inception_5b/relu_pool_proj
I1015 04:13:15.146333   246 net.cpp:170] Top shape: 3 128 7 7 (18816)
I1015 04:13:15.146371   246 layer_factory.hpp:74] Creating layer inception_5b/output
I1015 04:13:15.146392   246 net.cpp:99] Creating Layer inception_5b/output
I1015 04:13:15.146409   246 net.cpp:479] inception_5b/output <- inception_5b/1x1_bn
I1015 04:13:15.146431   246 net.cpp:479] inception_5b/output <- inception_5b/3x3_bn
I1015 04:13:15.146445   246 net.cpp:479] inception_5b/output <- inception_5b/double_3x3_2_bn
I1015 04:13:15.146463   246 net.cpp:479] inception_5b/output <- inception_5b/pool_proj_bn
I1015 04:13:15.146492   246 net.cpp:435] inception_5b/output -> inception_5b/output
I1015 04:13:15.146517   246 net.cpp:163] Setting up inception_5b/output
I1015 04:13:15.146544   246 net.cpp:170] Top shape: 3 1024 7 7 (150528)
I1015 04:13:15.146556   246 layer_factory.hpp:74] Creating layer global_pool
I1015 04:13:15.146580   246 net.cpp:99] Creating Layer global_pool
I1015 04:13:15.146605   246 net.cpp:479] global_pool <- inception_5b/output
I1015 04:13:15.146674   246 net.cpp:435] global_pool -> global_pool
I1015 04:13:15.146701   246 net.cpp:163] Setting up global_pool
I1015 04:13:15.148074   246 net.cpp:170] Top shape: 3 1024 1 1 (3072)
I1015 04:13:15.148103   246 layer_factory.hpp:74] Creating layer dropout
I1015 04:13:15.148126   246 net.cpp:99] Creating Layer dropout
I1015 04:13:15.148144   246 net.cpp:479] dropout <- global_pool
I1015 04:13:15.148170   246 net.cpp:424] dropout -> global_pool (in-place)
I1015 04:13:15.148195   246 net.cpp:163] Setting up dropout
I1015 04:13:15.148216   246 net.cpp:170] Top shape: 3 1024 1 1 (3072)
I1015 04:13:15.148231   246 layer_factory.hpp:74] Creating layer fc-action
I1015 04:13:15.148257   246 net.cpp:99] Creating Layer fc-action
I1015 04:13:15.148270   246 net.cpp:479] fc-action <- global_pool
I1015 04:13:15.148300   246 net.cpp:435] fc-action -> fc
I1015 04:13:15.148324   246 net.cpp:163] Setting up fc-action
I1015 04:13:15.151232   246 net.cpp:170] Top shape: 3 101 (303)
I1015 04:13:15.151262   246 layer_factory.hpp:74] Creating layer reshape_fc
I1015 04:13:15.151285   246 net.cpp:99] Creating Layer reshape_fc
I1015 04:13:15.151304   246 net.cpp:479] reshape_fc <- fc
I1015 04:13:15.151326   246 net.cpp:435] reshape_fc -> reshape_fc
I1015 04:13:15.151353   246 net.cpp:163] Setting up reshape_fc
I1015 04:13:15.151378   246 net.cpp:170] Top shape: 1 1 3 101 (303)
I1015 04:13:15.151393   246 layer_factory.hpp:74] Creating layer segment_consensus
I1015 04:13:15.151422   246 net.cpp:99] Creating Layer segment_consensus
I1015 04:13:15.151437   246 net.cpp:479] segment_consensus <- reshape_fc
I1015 04:13:15.151465   246 net.cpp:435] segment_consensus -> pool_fusion
I1015 04:13:15.151484   246 net.cpp:163] Setting up segment_consensus
I1015 04:13:15.154125   246 net.cpp:170] Top shape: 1 1 1 101 (101)
I1015 04:13:15.154151   246 layer_factory.hpp:74] Creating layer pool_fusion_segment_consensus_0_split
I1015 04:13:15.154165   246 net.cpp:99] Creating Layer pool_fusion_segment_consensus_0_split
I1015 04:13:15.154176   246 net.cpp:479] pool_fusion_segment_consensus_0_split <- pool_fusion
I1015 04:13:15.154198   246 net.cpp:435] pool_fusion_segment_consensus_0_split -> pool_fusion_segment_consensus_0_split_0
I1015 04:13:15.154219   246 net.cpp:435] pool_fusion_segment_consensus_0_split -> pool_fusion_segment_consensus_0_split_1
I1015 04:13:15.154235   246 net.cpp:163] Setting up pool_fusion_segment_consensus_0_split
I1015 04:13:15.154250   246 net.cpp:170] Top shape: 1 1 1 101 (101)
I1015 04:13:15.154264   246 net.cpp:170] Top shape: 1 1 1 101 (101)
I1015 04:13:15.154276   246 layer_factory.hpp:74] Creating layer loss
I1015 04:13:15.154296   246 net.cpp:99] Creating Layer loss
I1015 04:13:15.154311   246 net.cpp:479] loss <- pool_fusion_segment_consensus_0_split_0
I1015 04:13:15.154341   246 net.cpp:479] loss <- label_data_1_split_0
I1015 04:13:15.154367   246 net.cpp:435] loss -> loss
I1015 04:13:15.154382   246 net.cpp:163] Setting up loss
…
